analysis2_nn_model.pth (torch, 8267 bytes, 4 tensors)

fc.0.weight f4 [64, 16]
0.38637602 0.6993273 -0.19314742 0.82677287 1.1308062 0.56509894 -0.38079473 0.85391253
3.1170645 -1.4088202 0.69879514 0.8366313 -0.40680674 0.17194778 -1.4088866 0.9893693
-1.2107687 -0.56008047 -0.8472653 -0.41150606 3.3292181 -1.2573998 -0.9021346 -0.36211583
-0.009574362 -4.239645 -4.3693933 0.7667004 0.3418274 0.0053914143 0.29567412 -0.31994766
-0.09658186 -0.026072524 -0.041467287 0.16970375 0.10033879 0.13375759 0.08626854 -0.19008599
-0.10703155 0.083993025 -0.18116069 -0.14016412 0.13754988 -0.22535235 0.16895741 0.047583204
-0.54430443 -0.51086515 -0.22223207 -0.30958322 2.1904402 -1.1654778 0.23095523 -0.6159485
3.6201282 -1.6914625 -4.8327146 0.16183303 0.28432387 -0.084521115 3.0734174 1.1193439
-0.24204285 0.0858631 0.2069282 -0.18496235 -0.21406233 -0.0927374 0.038650185 -0.04926349
-0.15224427 0.11514611 -0.12092569 -0.17503583 -0.18339258 -0.18231991 -0.061568405 -0.13947514
-0.8671004 -1.0924692 -0.9064497 -1.3711101 0.68967587 -1.9582168 0.04905475 -1.028714
1.3567637 -1.050888 -1.6684122 0.14632083 0.1609572 -0.510229 1.4916462 -0.34469002
-0.15332279 -0.24753001 0.11795458 -0.01793623 0.17877018 0.20277765 -0.03237948 -0.043136686
0.12173152 0.22680676 -0.14245766 -0.23366243 -0.025000066 -0.05236274 -0.04630196 0.2437464
-0.5045715 -1.3125199 -0.16959557 -1.5010456 1.1454889 -2.6742957 0.21613288 -1.1963826
0.08323722 0.17052871 -1.7942425 0.38896835 -0.132948 -0.19117819 0.6623239 -0.8672273
-0.36196133 0.7084709 -0.32412612 1.3406113 -1.9206148 0.8825912 1.5326548 0.8286166
2.5506055 -0.5965246 0.7139364 -4.4529943 -0.77278674 0.9080134 4.038098 2.3179445
0.20118903 -0.8348283 -1.6375923 -1.0783693 0.19087969 -1.65941 0.35769013 -1.1627439
0.024789972 0.2763903 -0.93470895 -2.3238678 -0.35074335 0.069077745 -0.9625838 -2.4107575
0.58439976 0.6279926 -2.3177464 -0.4398107 -2.7109475 0.35910872 -0.42844093 0.26256984
-1.6687242 3.1709862 1.1264957 -5.9649315 -2.8346825 0.49187896 -0.17935704 -2.7024572
0.048799157 0.41236633 -1.1080838 1.3327341 -0.87495166 1.8642629 0.13375437 0.8309491
1.0416536 -1.4173814 0.86287665 0.14547203 -0.016998682 -0.065638356 0.46660003 -1.2750576
-0.2991804 -0.862128 -1.2000995 -0.813271 0.64294404 -1.8256471 0.18478112 -1.322963
-1.4615728 -0.88288045 -2.0502944 0.363495 1.1358681 0.25778383 0.82358336 -0.46190858
-0.27666748 -0.26632097 -0.121206544 0.11439067 0.0916102 0.011532947 -0.16737369 0.13670622
-0.01100094 -0.060943045 -0.164773 0.17603905 -0.03282697 -0.20645124 0.14687686 -0.26779932
0.23177873 0.48046482 -0.2044403 0.72892064 -0.23408407 0.9070968 0.31509295 0.8075397
0.81554085 -0.20263563 0.5735852 0.83007634 -1.359671 -0.026341442 0.31014138 -0.93385005
-0.5946798 -0.30089235 1.2493306 -0.27201888 -0.15227479 -1.2087036 -2.2123094 -0.54363084
2.455192 -3.0919473 -3.0797827 -3.1516786 0.37960398 -0.58375114 -0.0049806107 -1.9724717
00000000: 14d3 c53e 1d07 333f 70c8 45be 63a7 533f
00000010: 42be 903f 53aa 103f 87f7 c2be 039a 5a3f
00000020: fc7d 4740 3854 b4bf 3de4 323f 782d 563f
00000030: f948 d0be 1413 303e 6556 b4bf 4e47 7d3f
00000040: 78fa 9abf 6f61 0fbf 61e6 58bf ecb0 d2be
00000050: e911 5540 7af2 a0bf 4bf2 66bf 3f67 b9be
00000060: c9dd 1cbc 2cab 87c0 12d2 8bc0 7a46 443f
00000070: 0004 af3e 76aa b03b 9962 973e 2ed0 a3be
00000080: b6cc c5bd 0c96 d5bc 9ad9 29bd d2c6 2d3e
00000090: 6c7e cd3d c0f7 083e 8fad b03d e7a5 42be
000000a0: 5b33 dbbd 8904 ac3d 3082 39be 2f87 0fbe
000000b0: e0d9 0c3e c4c2 66be 2c03 2d3e 9be6 423d
000000c0: 8957 0bbf 0fc8 02bf ce90 63be b181 9ebe
000000d0: 2c30 0c40 602e 95bf 877f 6c3e cdae 1dbf
000000e0: 2eb0 6740 d881 d8bf 99a5 9ac0 8fb7 253e
000000f0: e692 913e 6819 adbd dfb2 4440 a946 8f3f
00000100: 15da 77be fed8 af3d fce4 533e c566 3dbe
00000110: 2833 5bbe 1bed bdbd a84f 1e3d 83c8 49bd
00000120: ece5 1bbe b9d1 eb3d e3a7 f7bd 983c 33be
00000130: 44cb 3bbe 12b2 3abe 272f 7cbd 92d2 0ebe
00000140: 4bfa 5dbf 08d6 8bbf 160d 68bf 8980 afbf
00000150: 998e 303f d9a6 fabf a2ed 483d e6ac 83bf
00000160: 6faa ad3f 7f83 86bf 888e d5bf 21d5 153e
00000170: f7d1 243e 5e9e 02bf 43ee be3f 367b b0be
00000180: a600 1dbe 8278 7dbe 2c92 f13d 00ef 92bc
00000190: 880f 373e f2a4 4f3e 58a0 04bd 18b0 30bd
000001a0: 604e f93d 0840 683e 6ce0 11be 3445 6fbe
000001b0: f0cc ccbc 507a 56bd 20a7 3dbd a898 793e
000001c0: 992b 01bf a700 a8bf 76aa 2dbe 4322 c0bf
000001d0: 619f 923f a927 2bc0 f051 5d3e 1123 99bf
000001e0: 4778 aa3d 149f 2e3e bda9 e5bf dc26 c73e
000001f0: 8523 08be 37c4 43be 0f8e 293f 9c02 5ebf
00000200: ff52 b9be 595e 353f dcf3 a5be 2799 ab3f
00000210: b5d6 f5bf 7ff1 613f 082e c43f 3820 543f
00000220: 1f3d 2340 d6b5 18bf 89c4 363f ee7e 8ec0
00000230: 5ad5 45bf 9173 683f 1938 8140 3459 1440
00000240: 7f04 4e3e 4fb7 55bf a09c d1bf 0108 8abf
00000250: f775 433e 8c67 d4bf 2923 b73e cbd4 94bf
00000260: 5714 cb3c 0883 8d3e 1649 6fbf 40ba 14c0
00000270: a294 b3be a278 8d3d e46b 76bf da49 1ac0
00000280: 399b 153f 1fc4 203f f555 14c0 de2e e1be
00000290: 2a80 2dc0 19dd b73e 9c5c dbbe 8e6f 863e
000002a0: c198 d5bf 70f1 4a40 0331 903f b8e0 bec0
000002b0: 706b 35c0 8fd7 fb3e 5fa9 37be 0ff5 2cc0
000002c0: a0e1 473d ae21 d33e b1d5 8dbf 0897 aa3f
000002d0: d5fc 5fbf 2ba0 ee3f e8f6 083e 15b9 543f
000002e0: e854 853f c16c b5bf 7ce5 5c3f 9ff6 143e
000002f0: d240 8bbc 676d 86bd 33e6 ee3e 1635 a3bf
00000300: 2c2e 99be 6cb4 5cbf dc9c 99bf 8732 50bf
00000310: fb97 243f ceae e9bf 4337 3d3e da56 a9bf
00000320: d114 bbbf 7404 62bf 0638 03c0 041c ba3e
00000330: 2064 913f 3efc 833e 5cd6 523f 487f ecbe
00000340: 5ca7 8dbe 395b 88be 233b f8bd a845 ea3d
00000350: 219e bb3d b0f4 3c3c 0264 2bbe b7fc 0b3e
00000360: 493d 34bc 6a9f 79bd 41ba 28be 9543 343e
00000370: 9375 06bd f467 53be e366 163e fe1c 89be
00000380: 6757 6d3e 7cff f53e cc58 51be 8b9a 3a3f
00000390: bcb3 6fbe 7f37 683f dd53 a13e ecba 4e3f
000003a0: 49c7 503f b77f 4fbe 7bd6 123f e27f 543f
000003b0: b309 aebf 02ca d7bc daca 9e3e cc10 6fbf
000003c0: ef3c 18bf 900e 9abe 11ea 9f3f 0f46 8bbe
000003d0: eced 1bbe cdb6 9abf 7a96 0dc0 642b 0bbf
000003e0: de21 1d40 77e2 45c0 291b 45c0 1ab5 49c0
000003f0: 745b c23e b770 15bf 6434 a3bb f479 fcbf

fc.0.bias f4 [64]
0.8158989 -1.466261 -0.24223961 -1.7369998 -0.184337 -0.87312835 -0.21999991 -1.3061954
1.0247734 -0.50682783 1.0380023 1.081155 -0.94328994 -0.14694029 0.6645542 -0.6722723
0.0043213964 0.50328934 -0.5835201 -0.7358969 -0.5948535 -0.46548304 1.0349934 0.116566196
-1.3623252 -0.95834076 0.72046924 1.5026997 -0.9117666 0.31896538 0.0888263 -0.42898956
-0.3019339 0.43248534 -0.47082266 -0.038620275 1.2664336 0.7165174 -1.1577498 -0.24248983
-0.11348671 -0.76452017 -0.2311092 0.19686034 0.23013067 0.0934353 -1.2622406 -1.0641885
0.069220945 -0.57457656 0.5896659 1.0779189 -1.5760978 -0.23574139 1.1086562 0.818211
-0.23151927 0.12881915 0.5782301 0.326913 -0.737327 0.6975185 -0.3065165 -0.16016382
00000000: c0de 503f 71ae bbbf a90d 78be 0256 debf
00000010: d7c2 3cbe 5785 5fbf a847 61be 6931 a7bf
00000020: c62b 833f 78bf 01bf 42dd 843f 4963 8a3f
00000030: 737b 71bf 8477 16be 3920 2a3f 0a1a 2cbf
00000040: 809a 8d3b 92d7 003f 9361 15bf bd63 3cbf
00000050: 5248 18bf cb53 eebe aa7a 843f 42ba ee3d
00000060: ac60 aebf d255 75bf ac70 383f 7758 c03f
00000070: 8969 69bf 6e4f a33e 90ea b53d 85a4 dbbe
00000080: 1597 9abe b86e dd3e ab0f f1be 4b30 1ebd
00000090: 7f1a a23f af6d 373f 2531 94bf 414f 78be
000000a0: b86b e8bd 98b7 43bf e4a7 6cbe c295 493e
000000b0: 60a7 6b3e 025b bf3d 1a91 a1bf 5437 88bf
000000c0: b6c3 8d3d 7317 13bf 58f4 163f 3ff9 893f
000000d0: 93bd c9bf 3166 71be 72e8 8d3f 4776 513f
000000e0: 6313 6dbe 2be9 033e e306 143f 2461 a73e
000000f0: 76c1 3cbf 9390 323f bbef 9cbe fc01 24be

fc.2.weight f4 [5, 64]
3.6099904 -3.2501075 0.09682002 -4.33129 0.09092049 2.0983315 -0.10111843 2.5764825
-2.014578 1.6504622 1.9391207 1.5145836 1.5478421 0.04281089 1.7083019 2.8445
-0.078942895 1.6210215 0.51531637 -1.5141741 -7.361024 -3.9840453 -2.7435467 0.044151843
1.7770015 1.2538736 0.5897932 2.138821 1.3397062 1.4535993 1.0241818 0.72159433
-1.319857 -1.075182 -1.0038223 1.917662 -0.8465405 -1.7292662 1.1025437 -1.4350792
0.111621216 0.31306052 -0.12066054 1.0500329 -0.9167348 2.3827002 2.5180974 -3.327357
0.8933796 -0.61086076 -1.7060878 -2.1054654 0.8696078 -0.08543024 -1.1374673 -1.5704848
1.7587135 -0.10118247 -1.0717957 -0.99098355 2.5474699 -0.46210924 1.3026203 1.9578553
3.128811 -1.98732 0.036318585 -2.4153152 -0.111999735 1.7693441 0.022411153 1.9863043
-1.8813756 2.024788 1.8711168 1.6672086 1.300749 0.020884924 1.43339 2.2663515
0.12416758 1.6957289 1.3162767 -0.95512855 -3.937727 1.9761952 -2.175704 -0.03279322
0.8095575 1.6530097 0.97724503 2.1756 1.2744443 0.91891396 0.8071646 1.3150355
-1.3447216 -0.8446506 -0.84170383 1.4200667 -0.72443795 -1.7483622 1.5657684 -1.4163225
0.109283715 1.0067798 -0.088504404 1.0690647 -1.0890677 2.23224 1.7772772 -2.3066485
0.47446334 -0.9096264 -1.6286131 -2.0935483 0.13627914 -0.016348487 -0.8097875 -2.1335254
1.5298616 -0.09428983 -0.6810107 -0.952357 2.7828777 -0.62345785 1.2851323 2.0632145
3.4267862 -2.3682609 -0.08661697 -3.2697377 -0.05010873 2.32279 0.08899483 1.5316784
-1.7270994 1.3429012 1.8335428 1.8034194 0.9879134 0.04935657 1.4115669 3.187432
-0.041360945 1.5465628 1.3474026 -1.5731839 -5.583525 2.0705183 -2.3608263 -0.04693093
0.9532489 2.4350438 1.0498554 2.0222013 -1.1184924 1.0797124 0.71781945 0.9490233
-1.5408919 -0.6985777 -1.5328432 1.3332111 -0.7857267 -1.6976897 1.6192018 -1.7272844
0.096125305 1.4432116 0.021790192 1.2318372 -1.191038 2.2863894 2.0223527 -3.4392893
0.48981333 -1.3936224 -1.6224266 -2.1387682 1.6113944 0.033924103 -0.85861176 -2.1722631
1.2896338 -0.010707408 -0.8150515 -1.0808262 2.7231326 -0.75587994 1.2043962 2.1046238
3.4368508 -3.036379 -0.026085304 -2.5374668 -0.103373796 2.0309668 -0.08167274 2.081872
-1.7833236 1.4434764 1.8268855 1.8291466 1.5029432 -0.035684016 1.4471958 2.8039315
-0.121199444 1.7014166 1.2067516 -0.60166353 -5.536195 2.0367274 -2.4624906 -0.08647276
1.077164 1.6283913 1.055623 2.0006156 0.67951137 0.95407003 0.8299558 0.82352364
-1.3232869 -0.778281 -1.3270483 1.4707503 -0.7531758 -1.800278 2.0167572 -0.5522477
-0.0021486878 1.3578649 -0.119932294 1.1585062 -1.1707561 2.2918396 2.2834663 -2.686006
0.50853974 -0.90562683 -1.6669534 -2.138729 1.1168158 -0.01542594 -0.90262526 -2.2271166
1.6475194 -0.021440169 -0.7799268 -1.0217882 2.6643577 -0.7533758 1.195194 2.1234608
00000000: 150a 6740 c301 50c0 9349 c63d ed99 8ac0
00000010: 8634 ba3d 104b 0640 2e17 cfbd 17e5 2440
00000020: d9ee 00c0 5842 d33f 1b35 f83f e0dd c13f
00000030: b11f c63f 795a 2f3d a3a9 da3f 4a0c 3640
00000040: d0ac a1bd a27d cf3f c6eb 033f 75d0 c1bf
00000050: 828d ebc0 99fa 7ec0 4596 2fc0 90d8 343d
00000060: c974 e33f ee7e a03f b0fc 163f 71e2 0840
00000070: 7e7b ab3f 8b0f ba3f 6418 833f 68ba 383f
00000080: 13f1 a8bf 909f 89bf 407d 80bf f375 f53f
00000090: e1b6 58bf 9858 ddbf 2720 8d3f adb0 b7bf
000000a0: aa99 e43d 7849 a03e e01c f7bd 7a67 863f
000000b0: 22af 6abf 297e 1840 8228 2140 6bf3 54c0
000000c0: 87b4 643f 5f61 1cbf 1661 dabf f2bf 06c0
000000d0: 9e9e 5e3f 0df6 aebd 8798 91bf a505 c9bf
000000e0: 861d e13f c138 cfbd 9a30 89bf 19b1 7dbf
000000f0: bf09 2340 9599 ecbe 43bc a63f 019b fa3f
00000100: 703e 4840 8060 febf ccc2 143d 8694 1ac0
00000110: 1e60 e5bd de79 e23f 9897 b73c 383f fe3f
00000120: ead0 f0bf 2096 0140 c180 ef3f 1767 d53f
00000130: f17e a63f dc16 ab3c 5379 b73f e70b 1140
00000140: 924b fe3d a50d d93f c17b a83f 4e83 74bf
00000150: b803 7cc0 f7f3 fc3f bc3e 0bc0 2f52 06bd
00000160: 293f 4f3f d295 d33f bb2c 7a3f 083d 0b40
00000170: fe20 a33f f23d 6b3f 57a2 4e3f 1553 a83f
00000180: d61f acbf 063b 58bf e779 57bf bfc4 b53f
00000190: c474 39bf 55ca dfbf 196b c83f 0e4a b5bf
000001a0: 24d0 df3d 29de 803f cc41 b5bd 1dd7 883f
000001b0: 9266 8bbf 05dd 0e40 d27d e33f 21a0 13c0
000001c0: dcec f23e 47dd 68bf 6576 d0bf b2fc 05c0
000001d0: c28c 0b3e 43ed 85bc 3c4e 4fbf ae8b 08c0
000001e0: 81d2 c33f 071b c1bd b856 2ebf abcd 73bf
000001f0: ab1a 3240 ef9a 1fbf 377f a43f b50b 0440
00000200: 7750 5b40 9691 17c0 3d64 b1bd 6243 51c0
00000210: d03e 4dbd 97a8 1440 ec42 b63d 0a0e c43f
00000220: 9811 ddbf 30e4 ab3f 88b1 ea3f 72d6 e63f
00000230: e5e7 7c3f 1d2a 4a3d 39ae b43f e3fe 4b40
00000240: 186a 29bd c5f5 c53f b077 ac3f 175e c9bf
00000250: 3dac b2c0 5f83 0440 c717 17c0 a63a 40bd
00000260: 1f08 743f c2d7 1b40 a961 863f bf6b 0140
00000270: c22a 8fbf 0434 8a3f 04c3 373f 31f3 723f
00000280: f23b c5bf fdd5 32bf 3534 c4bf a9a6 aa3f
00000290: 6325 49bf e54d d9bf 0142 cf3f a817 ddbf
000002a0: 58dd c43d 28bb b83f 5881 b23c d7ac 9d3f
000002b0: ef73 98bf 3454 1240 3a6e 0140 511d 5cc0
000002c0: d0c8 fa3e 3862 b2bf adab cfbf 94e1 08c0
000002d0: 2c42 ce3f 00f4 0a3d fbcd 5bbf 5c06 0bc0
000002e0: b812 a53f 206e 2fbc 37a7 50bf 8358 8abf
000002f0: ce47 2e40 5981 41bf a829 9a3f 28b2 0640
00000300: 5df5 5b40 0954 42c0 d9b0 d5bc db65 22c0
00000310: a4b5 d3bd 5cfb 0140 0a44 a7bd 643d 0540
00000320: f343 e4bf d6c3 b83f 62d7 e93f 7a21 ea3f
00000330: 7160 c03f 6729 12bd b63d b93f 9d73 3340
00000340: 6a37 f8bd 05c8 d93f d676 9a3f 9f06 1abf
00000350: 8228 b1c0 be59 0240 7299 1dc0 a118 b1bd
00000360: 83e0 893f 206f d03f a81e 873f 160a 0040
00000370: 75f4 2d3f ef3d 743f fc77 543f 72d2 523f
00000380: 7761 a9bf 6c3d 47bf b8dc a9bf 8c41 bc3f
00000390: 21d0 40bf 826f e6bf 8d12 0140 1b60 0dbf
000003a0: 00d1 0cbb 84ce ad3f 109f f5bd ee49 943f
000003b0: 56db 95bf 80ad 1240 5024 1240 86e7 2bc0
000003c0: a92f 023f 29d7 67bf bb5e d5bf f0e0 08c0
000003d0: d2f3 8e3f 15bd 7cbc 7312 67bf 1489 0ec0
000003e0: eae1 d23f 4ba3 afbc 48a9 47bf f5c9 82bf
000003f0: d684 2a40 3ddd 40bf 1efc 983f c8e6 0740

fc.2.bias f4 [5]
0.7023083 0.5327576 0.5833341 0.84848326 0.75707245
00000000: 7aca 333f cd62 083f 6255 153f 3336 593f
00000010: 80cf 413f
