analysis_nn_model.pth (torch, 8257 bytes, 4 tensors)

fc.0.weight f4 [64, 16]
-0.2555604 -0.2570732 -0.22897744 -0.036145076 -0.16317894 0.19860831 -0.015273154 0.11277535
-0.19520307 -0.0285456 -0.24881238 0.14672458 -0.14054862 0.06717 -0.0633166 0.1974281
-0.15452227 0.054864466 -0.12758848 0.0005657375 -0.07410619 -0.1468715 -0.19714323 -0.1238834
0.036381602 -0.14310157 -0.101463914 0.024060398 0.0612157 0.0919784 0.24146041 -0.00074347854
0.068371385 0.35160485 -1.2917315 0.8103585 -0.123736024 1.3538996 0.115628466 0.5136247
-0.8951164 -2.064576 1.167566 -0.2895427 1.5156946 0.24355367 0.03592838 -1.0003809
0.010625828 0.11205005 -0.24825497 0.15830812 -0.008935029 -0.03828436 0.07176493 -0.2251012
0.2429102 -0.15070067 -0.21801516 -0.252465 0.17723852 -0.10406562 -0.024281453 0.037266828
-0.14215362 -0.2275104 -0.2386941 -0.14389756 0.09557417 0.14761421 -0.024331897 -0.21876088
-0.15939945 -0.08743334 -0.15747663 -0.22579563 -0.04068029 0.176721 -0.24880305 0.06414637
0.22396126 0.33517042 0.09180449 0.38586602 -0.12993851 0.8494928 -0.3557041 0.04518957
0.3262075 -0.9371351 0.7791608 0.52866673 -1.0977327 -0.13475351 -0.43186378 -4.3972206
0.08894057 1.1575178 0.6199019 1.5567108 2.133566 1.0487019 -0.10551596 1.4903177
2.430983 -1.7348363 -0.9785385 0.96172005 1.8361032 0.119634576 0.047455918 2.9066525
0.6413959 0.45982713 0.2981404 0.7223234 0.6311803 1.244581 -0.28344795 0.692983
1.9445547 -0.4363811 0.67186195 0.47711444 -1.6669106 0.19879884 -0.75903434 -0.13812879
-0.5211336 -0.58182657 1.35188 -0.5867922 1.070971 -0.083598524 0.69949824 -0.7126501
4.0046225 0.44310632 -0.9192136 0.83171153 0.19569607 0.08961919 2.7826297 -0.39376557
-0.26931003 0.2668995 1.4023432 -0.14162464 3.5578797 0.05157227 -1.7073699 0.31432945
6.4924545 1.1296116 -0.1594407 2.7745678 -1.609232 -0.0075618294 0.08423786 2.4690177
0.624307 0.830226 0.09696625 1.097423 0.5862249 2.349677 -0.19507591 1.059876
-0.63920194 -4.506399 -0.09697035 0.12343164 -0.47189322 0.79501265 0.4429616 -0.37671158
0.4121373 -0.95530605 -0.34126407 -0.9741887 0.0855556 -0.9466093 -0.4398271 -0.7246406
-1.5905116 -0.81649095 -0.8237129 -0.23211667 -0.14119065 -0.8394755 -0.44040596 -0.3626375
1.7346367 -0.7387441 0.43622047 -1.5779803 1.5749177 0.16845383 0.7844748 -0.69746166
-3.6531706 2.7997913 1.2521966 1.9030639 0.18692228 0.24803402 -0.52729857 -0.79132164
-0.20691025 -0.27509 -0.17577648 -0.11358779 0.03258622 0.06268307 -0.04163128 0.2128434
0.036177445 0.12304177 -0.2337149 -0.06921223 -0.12770909 -0.06136741 0.17714915 -0.02104488
-0.16972786 -0.08310888 0.22626452 -0.082966596 0.008790907 -0.014962292 -0.23215377 -0.12560621
-0.1368938 -0.15910956 0.11954751 -0.09664062 0.15457483 -0.026703745 0.019018278 -0.23361596
-0.28376183 0.14259844 0.21627524 0.02429955 0.276042 0.3241977 0.9229054 0.34316927
1.0399734 0.31743583 0.30653495 0.26435396 -1.4344091 -0.6459978 -0.99392647 1.5664494
00000000: d0d8 82be 199f 83be 1079 6abe dc0c 14bd
00000010: 6118 27be fa5f 4b3e 403c 7abc c3f6 e63d
00000020: 50e3 47be 76d8 e9bc acc8 7ebe f83e 163e
00000030: faeb 0fbe 6d90 893d 22ac 81bd 982a 4a3e
00000040: 163b 1ebe 90b9 603d 8ea6 02be 004e 143a
00000050: fcc4 97bd 7c65 16be eadf 49be 94b6 fdbd
00000060: e004 153d 3889 12be 50cc cfbd 501a c53c
00000070: 50bd 7a3d 2c5f bc3d 6641 773e 00e6 42ba
00000080: 4c06 8c3d 8d05 b43e 7557 a5bf a873 4f3f
00000090: 5069 fdbd 954c ad3f 9ece ec3d e97c 033f
000000a0: 5926 65bf 0322 04c0 cd72 953f f13e 94be
000000b0: 4802 c23f 2266 793e a329 133d 7b0c 80bf
000000c0: f417 2e3c 7f7a e53d 8d36 7ebe 861b 223e
000000d0: 3a64 12bc 10d0 1cbd 7ef9 923d ee80 66be
000000e0: 74bd 783e 4751 1abe 5e3f 5fbe 1843 81be
000000f0: 047e 353e 5b20 d5bd e6e9 c6bc 1aa5 183d
00000100: b890 11be 7cf8 68be 3a6c 74be e259 13be
00000110: 64bc c33d 2e28 173e b053 c7bc da02 60be
00000120: 9c39 23be 4010 b3bd 8e41 21be f836 67be
00000130: 60a0 26bd 5af6 343e 3ac6 7ebe 2c5f 833d
00000140: 1a56 653e 759b ab3e fe03 bc3d 3b90 c53e
00000150: 9a0e 05be 5c78 593f d91e b6be b318 393d
00000160: ab04 a73e 16e8 6fbf 1577 473f b456 073f
00000170: 8182 8cbf d3fc 09be 401d ddbe 08b6 8cc0
00000180: 7926 b63d 8b29 943f e4b1 1e3f 4d42 c73f
00000190: 588c 0840 dd3b 863f c018 d8bd bbc2 be3f
000001a0: 3a95 1b40 1e0f debf 8081 7abf 4933 763f
000001b0: 6e05 eb3f f902 f53d 2361 423d 9806 3a40
000001c0: 8632 243f 766e eb3e dca5 983e 30ea 383f
000001d0: 0895 213f 6e4e 9f3f 1720 91be 5567 313f
000001e0: 2be7 f83f 586d dfbe 25ff 2b3f 5848 f43e
000001f0: 545d d5bf ec91 4b3e 1350 42bf a271 0dbe
00000200: 0369 05bf 96f2 14bf 670a ad3f 0338 16bf
00000210: 9415 893f b435 abbd 5112 333f 3d70 36bf
00000220: de25 8040 d5de e23e 9551 6bbf 0ceb 543f
00000230: 8d64 483e 448a b73d 9b16 3240 a49b c9be
00000240: 01e3 89be 0da7 883e fb7f b33f 0d06 11be
00000250: 4db4 6340 723d 533d 198b dabf caef a03e
00000260: 30c2 cf40 1d97 903f 6c44 23be 8592 3140
00000270: 50fb cdbf 39c9 f7bb e684 ac3d 6304 1e40
00000280: 95d2 1f3f b189 543f 3e96 c63d 5b78 8c3f
00000290: d612 163f 1c61 1640 fbc1 47be 04aa 873f
000002a0: bda2 23bf 6c34 90c0 6498 c6bd bac9 fc3d
000002b0: fd9b f1be f385 4b3f ddcb e23e 57e0 c0be
000002c0: a903 d33e f08e 74bf 2aba aebe 6e64 79bf
000002d0: c637 af3d fd54 72bf 0531 e1be 0c82 39bf
000002e0: e295 cbbf 8d05 51bf d9de 52bf feaf 6dbe
000002f0: 4894 10be dee7 56bf e47c e1be 9fab b9be
00000300: 9308 de3f 551e 3dbf 4a58 df3e 42fb c9bf
00000310: e796 c93f 297f 2c3e 57d3 483f d98c 32bf
00000320: 8ccd 69c0 c82f 3340 fa47 a03f 9997 f33f
00000330: 8e68 3f3e a1fc 7d3e 0afd 06bf 0e94 4abf
00000340: 48e0 53be 99d8 8cbe c0fe 33be b7a0 e8bd
00000350: 2179 053d fb5f 803d 9085 2abd 9ff3 593e
00000360: cd2e 143d 53fd fb3d f552 6fbe 24bf 8dbd
00000370: 2cc6 02be 655c 7bbd 9666 353e 5066 acbc
00000380: 24cd 2dbe fd34 aabd e3b1 673e 64ea a9bd
00000390: bd07 103c 6724 75bc b8b9 6dbe ea9e 00be
000003a0: e32d 0cbe 9eed 22be 53d5 f43d 84eb c5bd
000003b0: dd48 1e3e d0c1 dabc 38cc 9b3c 0639 6fbe
000003c0: 3b49 91be 5305 123e 4277 5d3e da0f c73c
000003d0: 6155 8d3e 3efd a53e 8743 6c3f e2b3 af3e
000003e0: d91d 853f f386 a23e 26f2 9c3e 6759 873e
000003f0: b89a b7bf 1d60 25bf f771 7ebf 6a81 c83f

fc.0.bias f4 [64]
-0.10597356 -0.23050416 0.43045154 -0.24201654 -0.026133537 0.3167184 -0.3893003 0.90051514
0.6107581 1.0736512 0.6870734 -0.54394394 1.0153748 -0.006140418 0.06707302 0.41358072
-0.64632064 -0.33367735 0.2271437 -0.65542024 1.2196677 -0.2420864 -0.23374042 -0.6548131
0.9461927 0.5849731 -0.20097175 0.3677537 -0.13274278 0.8390357 -0.5399839 0.37174845
0.14247537 0.09279828 -0.2934782 0.16901448 1.5866072 -1.0988661 0.68928564 -0.7901065
0.45421067 0.25057575 -0.0057120626 1.2975081 0.18830965 0.81663644 0.7984606 -0.20189472
0.23358075 -0.6383393 -0.1244819 -0.24436653 -0.14346544 0.46203482 0.62448287 0.49155918
-0.32793614 -0.219123 0.2769615 -0.9443775 0.21886393 -0.48634723 -0.14478986 -0.7589563
00000000: aa08 d9bd 4809 6cbe 2564 dc3e 2fd3 77be
00000010: 0016 d6bc ea28 a23e 5e52 c7be 2988 663f
00000020: a55a 1c3f 676d 893f 0be4 2f3f e93f 0bbf
00000030: cdf7 813f 8f35 c9bb 945d 893d dac0 d33e
00000040: 4575 25bf c2d7 aabe 5c98 683e 9fc9 27bf
00000050: 121e 9c3f 7fe5 77be a659 6fbe d5a1 27bf
00000060: af39 723f ccc0 153f 8acb 4dbe 374a bc3e
00000070: b9ed 07be 0bcb 563f 633c 0abf d055 be3e
00000080: 10e5 113e 060d be3d c642 96be 2212 2d3e
00000090: f215 cb3f a5a7 8cbf 0675 303f 6b44 4abf
000000a0: 4d8e e83e 774b 803e 412c bbbb bf14 a63f
000000b0: 3fd4 403e 160f 513f ea67 4c3f 7dbd 4ebe
000000c0: cb2f 6f3e 346a 23bf 5ef0 febd 383b 7abe
000000d0: 9be8 12be d48f ec3e 1cde 1f3f a5ad fb3e
000000e0: 3fe7 a7be c861 60be e6cd 8d3e b9c2 71bf
000000f0: de1d 603e 8102 f9be cb43 14be f64a 42bf

fc.2.weight f4 [5, 64]
-0.0010339218 -0.022383898 -1.4405499 -0.057515852 -0.04155767 0.8223397 2.121011 2.2179794
2.5939639 -2.4306254 -1.3483042 1.5795965 2.0951712 -0.023309266 0.11352839 0.6477611
-2.0955997 -2.3012173 -1.4428416 1.2138784 1.5916197 0.08958786 -0.0064454824 3.0801218
-0.8210609 3.3687303 1.7400856 1.1830103 0.02217926 -1.8792667 -1.626087 0.75094
0.055030167 0.45590752 -0.13072366 0.62445015 -3.2651925 2.1929862 1.9328508 0.93356645
-0.6264397 1.6786735 0.8237538 -2.029614 -0.8467747 1.0693374 0.528564 -0.10949018
-1.478346 1.0838611 -1.6818821 0.007271379 -0.07355684 2.0677023 1.1292486 1.8308277
-0.57466114 0.02561 0.7352456 1.603411 -0.5642359 1.4927416 -1.0419306 0.8341893
-0.019892791 -0.091956615 -0.8140367 0.017333953 0.045510933 0.643061 2.1774666 2.4307177
2.4466057 -1.938884 -1.4617962 1.7456665 1.3621697 -0.1107662 0.006750887 0.26759928
-0.70745975 -2.340238 -1.2558107 1.3696094 1.3448428 0.019003257 0.056177646 2.376336
-1.0366837 2.9473073 1.7452776 1.1902083 0.1014484 -1.3448962 -0.53601164 0.7139191
-0.111689985 0.38611922 0.75699973 0.8487684 -2.9887655 2.2178605 1.9050821 1.4855577
-0.8902637 1.4727838 0.7144035 -1.9329433 -1.1928009 0.9633235 0.80164593 0.020155558
-0.7637253 1.840966 -1.9823565 -0.045052826 -0.101231955 2.0136464 0.76981443 1.7128512
-0.6714621 -0.060448885 0.8202824 1.7114855 -0.5943798 1.2975769 -1.0368941 0.58963984
-0.04002651 -0.07651153 -0.9480817 -0.01646666 0.055110157 0.6450945 2.1373765 2.3925226
2.334663 -2.0105 -1.4628979 2.023292 1.6375455 0.1235269 -0.116530105 0.34233132
-2.078539 -2.6938777 -1.0825683 -0.31922266 1.3135056 0.025708646 0.0847868 2.98163
-1.2653924 3.3643572 1.7754946 1.2565901 -0.124445856 -1.7465931 -1.4282376 0.7684485
-0.027073458 0.34793532 0.40192035 1.1253355 -3.1444805 1.0987823 1.8585094 0.541168
-0.8284943 1.208795 0.7861275 -1.8387446 -1.0620617 1.0094209 0.62969506 -0.11963215
-0.7692909 1.9426664 -2.1216366 -0.06067647 -0.015033544 1.8415769 0.8125267 1.507089
-0.41970396 -0.06844261 0.95740354 1.3754592 -0.72231513 1.4815376 -1.0190974 1.8383797
-0.099708594 0.021074146 -0.6786991 -0.040961362 0.020575479 0.5461225 2.1211066 2.326366
2.5189621 -2.0281024 -1.4788415 1.8426753 1.3371469 0.027629465 -0.001171185 0.31483725
-1.5462428 -2.8867693 -1.0757512 1.532935 1.2835867 -0.053382248 0.03155844 2.749513
-1.0484781 3.0747402 1.7889441 1.1588298 0.026593357 -1.4660676 -1.4742471 0.6144921
-0.035933822 0.3406781 0.8045138 0.9581172 -3.0977366 2.557702 1.9141314 1.0280187
-0.80816674 1.2304579 0.72332585 -1.8389392 -1.0395905 1.0506775 0.7855831 -0.09037764
-0.56801873 1.3068862 -2.0199118 0.04223904 0.092194855 1.9604782 0.62444127 1.5733402
-0.6225456 -0.08395244 1.0703939 1.3293281 -0.73632693 1.3501246 -1.0393877 1.1795425
00000000: a984 87ba 705e b7bc f063 b8bf be95 6bbd
00000010: 6038 2abd db84 523f a5be 0740 60f3 0d40
00000020: 8103 2640 5e8f 1bc0 3b95 acbf 3830 ca3f
00000030: 4917 0640 13f3 bebc 9381 e83d acd3 253f
00000040: 4e1e 06c0 2547 13c0 09af b8bf 5e60 9b3f
00000050: 32ba cb3f d779 b73d a034 d3bb b720 4540
00000060: 0c31 52bf 4799 5740 20bb de3f e26c 973f
00000070: 48b1 b53c d08b f0bf 9e23 d0bf 9b3d 403f
00000080: 5067 613d b66c e93e 6cdc 05be f7db 1f3f
00000090: eaf8 50c0 e359 0c40 a867 f73f 36fe 6e3f
000000a0: 5a5e 20bf c6de d63f 87e1 523f 32e5 01c0
000000b0: 3ac6 58bf 0ce0 883f f84f 073f 633c e0bd
000000c0: 713a bdbf f6bb 8a3f ea47 d7bf c044 ee3b
000000d0: f8a4 96bd 3c55 0440 388b 903f 9058 ea3f
000000e0: fe1c 13bf 10cc d13c 0e39 3c3f 923c cd3f
000000f0: c471 10bf 2812 bf3f fb5d 85bf 6e8d 553f
00000100: 35f6 a2bc c053 bcbd b664 50bf efff 8d3c
00000110: ac69 3a3d a59f 243f 9d5b 0b40 e190 1b40
00000120: 3095 1c40 5a2d f8bf 231c bbbf 0072 df3f
00000130: 945b ae3f 64d9 e2bd 8b36 dd3b c602 893e
00000140: 151c 35bf 76c6 15c0 68be a0bf 5c4f af3f
00000150: cf23 ac3f b8ac 9b3c 881a 663d e415 1840
00000160: 0db2 84bf afa0 3c40 4265 df3f bf58 983f
00000170: 2ec4 cf3d 8f25 acbf 0f38 09bf 67c3 363f
00000180: b8bd e4bd 6bb1 c53e bcca 413f e348 593f
00000190: ef47 3fc0 6df1 0d40 bbd9 f33f c126 be3f
000001a0: 52e8 63bf 2e84 bc3f 26e3 363f b06a f7bf
000001b0: b3ad 98bf 5e9c 763f ab38 4d3f 451d a53c
000001c0: 8083 43bf c6a4 eb3f dcbd fdbf 5089 38bd
000001d0: b352 cfbd 95df 0040 8f12 453f b53e db3f
000001e0: f1e4 2bbf 4099 77bd 07fe 513f f511 db3f
000001f0: 4629 18bf 0017 a63f f2b8 84bf a3f2 163f
00000200: d6f2 23bd 14b2 9cbd 7bb5 72bf 17e5 86bc
00000210: 30bb 613d ea24 253f c7ca 0840 171f 1940
00000220: 1e6b 1540 08ac 00c0 3d40 bbbf 9e7d 0140
00000230: 179b d13f acfb fc3d 56a7 eebd 0d46 af3e
00000240: c806 05c0 7e68 2cc0 9991 8abf 2771 a3be
00000250: f420 a83f f09a d23c b4a4 ad3d 07d3 3e40
00000260: 61f8 a1bf a151 5740 6843 e33f f2d7 a03f
00000270: 78dd febd 5d90 dfbf 7dd0 b6bf 0ab9 443f
00000280: 28c9 ddbc 9424 b23e 81c8 cd3e fe0a 903f
00000290: 2b3f 49c0 e6a4 8c3f a3e3 ed3f fc89 0a3f
000002a0: 3418 54bf cbb9 9a3f a73f 493f fc5b ebbf
000002b0: a3f1 87bf b434 813f b233 213f b301 f5bd
000002c0: 40f0 44bf 4ba9 f83f e5c8 07c0 e487 78bd
000002d0: 414f 76bc cbb8 eb3f c001 503f 4be8 c03f
000002e0: 70e3 d6be a42b 8cbd 6618 753f 0c0f b03f
000002f0: a5e9 38bf 06a3 bd3f c971 82bf 0750 eb3f
00000300: 0534 ccbd b0a3 ac3c 39bf 2dbf 1ac7 27bd
00000310: e88d a83c afce 0b3f 36c0 0740 2ee3 1440
00000320: ad36 2140 6ecc 01c0 ae4a bdbf c9dc eb3f
00000330: a127 ab3f 3057 e23c 7382 99ba 5932 a13e
00000340: 49eb c5bf d4c0 38c0 37b2 89bf 3737 c43f
00000350: 924c a43f 58a7 5abd 6c43 013d 05f8 2f40
00000360: 8834 86bf 8bc8 4440 1ffc e43f 8954 943f
00000370: 50da d93c 1aa8 bbbf 21b4 bcbf 5b4f 1d3f
00000380: 582f 13bd 5c6d ae3e 9ef4 4d3f 2b47 753f
00000390: 5141 46c0 64b1 2340 4202 f53f 1e96 833f
000003a0: 04e4 4ebf a57f 9d3f e22b 393f 5c62 ebbf
000003b0: 4d11 85bf 9a7c 863f f91b 493f ea17 b9bd
000003c0: ad69 11bf 0c48 a73f 3c46 01c0 d802 2d3d
000003d0: a8d0 bc3d f3f0 fa3f 62db 1f3f 3663 c93f
000003e0: 265f 1fbf 42ef abbd ab02 893f 6c27 aa3f
000003f0: ec7f 3cbf e2d0 ac3f a80a 85bf 40fb 963f

fc.2.bias f4 [5]
0.47583544 1.1158918 0.72971845 1.1637672 1.1741585
00000000: b4a0 f33e 8bd5 8e3f d4ce 3a3f 53f6 943f
00000010: d34a 963f
