analysis_nn_model.pth (torch, 8257 bytes, 4 tensors)

fc.0.weight f4 [64, 16]
00000000: c033 6cbf 34fd afbe 9db1 af3c 4413 6ebe
00000010: af88 babe 88e4 9bbe 6e57 bfbf 3aef 95be
00000020: d062 1940 5e4e 67c0 6965 01c0 3828 c3be
00000030: 4db4 023f e73b 3f3f 008a 16be e050 05bf
00000040: b387 c9bd d758 5e3e 33b6 febc 3a8a 0bbe
00000050: c632 0bbe 4415 31bc 6c58 903d 65f0 44be
00000060: fe09 b3bd 10ca 853d 31fc 15be 83b4 423d
00000070: 7bf7 763d 0a02 7bbe 7e37 5fbd 3869 abbc
00000080: 84ba f43d c471 83be e043 30bf 3f82 0f3e
00000090: 5e0e 043e 71eb 25bd c4ac 8d3e aaa1 adbe
000000a0: efa5 983d aee2 17bc 5f32 223e 4550 bcbd
000000b0: 27f6 77be e4c5 333d 199b 9abd 83ab 94be
000000c0: 13f3 21be 3984 9ebe fa7b 813e 8f8a 2fbe
000000d0: 7a21 8abf c032 cabf 274d c93d 31cd 96be
000000e0: 09d1 1640 4b96 e0bf 2a90 8b3c 96b3 50c0
000000f0: 6b26 82bf 61b2 c0bc b825 6940 4912 5dbe
00000100: f67c 083e 7c83 0dbf 42a9 343f 283e f3bf
00000110: c1bf 2bbe 15cf 25be 3a49 4abe 31ee efbe
00000120: 555d ad3f a47b a940 b7c5 643f 8cf1 083f
00000130: a415 42bf 013d 023e 30f4 a43d 1d7d 963f
00000140: a95e 3dbe 2525 ed3e 7246 bcbe 0458 8b3f
00000150: 7980 7e3e e572 1dbf 6aea 323d 1bae 763e
00000160: 4bf5 103e 3bcf 18c1 35cd 09bf 5584 afbe
00000170: 3775 98bf 037d 623d db73 51be 455e 3bbf
00000180: 042f 8ebe 38a4 f0bd 8085 80c0 36e5 493c
00000190: 133e 843e 577a 9ebd 50cc 17bf c728 21be
000001a0: 5aac 08bf 35f8 fcbf 0f81 393e 84b0 f8be
000001b0: b50a 4fbd 5414 64be 5c6b d83b f5f2 40bf
000001c0: 7fa5 3fc0 3694 313e a249 c5c0 607b a03e
000001d0: b8b0 743e 628e 7cbd a185 8fc0 8f9f e3bd
000001e0: 9edc fc3e d066 cdbb 5ca9 813e e4be febf
000001f0: 8681 2d3e e60d c73f db08 7440 d5b3 fa3f
00000200: adca 9cbf a1a2 aabe 11dd c3bf 61a4 a4be
00000210: 4d3f 5cbf d10d 26bc 0ef5 6c40 f683 45be
00000220: dd13 5e40 51a0 e53d 0596 743f 3341 20c0
00000230: 3f34 b6be de40 b2bf ce40 8f40 8fe3 6ebe
00000240: ae6c c23d 9dad 47be ab59 32bd c85d 91be
00000250: 3168 243e fbb8 253d 505e d23d e666 99be
00000260: 5059 c8bd 0c44 95be 32d6 a53d ef65 1b3e
00000270: 3c73 76be 885f 183e d20b f6bb 892a 8cbe
00000280: ae14 98bf bfab 9cbe f502 8cbf bce3 16be
00000290: eef4 b8bf 1c43 5ebd 041f 1940 1954 783e
000002a0: 9de7 8c40 ae89 193f 4870 1cbf 1fd7 ecbf
000002b0: c88d 7dbd df5b e0be 7869 8840 ebb5 a03f
000002c0: 5bf0 a93e 66ed 0cbc 919f 6abe 3ae6 a4bf
000002d0: 0210 3b3e 6cdc 9dbe 2d96 a9be 1584 2e3e
000002e0: 3c6d e1be af65 8740 b0e7 843e 4916 0e3e
000002f0: 7bfa 0a3f 789d c63d d2cc 9cbe 3358 a5bf
00000300: 2070 ffbd 4f84 2e3e ebad 9cbd 5e2e ec3e
00000310: acae 163e adb3 843d 18e5 3c3e e8a2 54be
00000320: fecf b4be 92b8 37c0 3a37 95be 15c4 a6be
00000330: 50c5 743e f47e e2bc 9baf 4fbd 955c 20c0
00000340: 0362 92be c34c 0e3e 2d18 84bd 07c8 8cbe
00000350: 22ce f63d a6b9 78bd 4e0b 9e3d 0bc8 5abe
00000360: 3597 33bd 3f75 353e 8147 993d fb20 48be
00000370: 316b c2bd 6f49 44be be6e 8e3b eeb8 0f3e
00000380: 84da a0bf 54fd 17be 0ab3 7ac0 c0ee d3be
00000390: 78d1 5abf f543 b3bd f1aa 623f c535 14be
000003a0: bcdf fdbe 72c1 1040 bf52 4b3f eeeb 8fbf
000003b0: 9cea adbd 0b7f 3dbe 92c5 1140 e1dc d33f
000003c0: 0385 9abf f1fc 05bf c98d e4bf 08c1 153e
000003d0: 714b 8a3f c754 c43c 4fbd a13f ccbd 3abf
000003e0: 12f1 20bf c101 4cc0 b9ec 553f 84f0 5d3f
000003f0: 707f adbe fa62 283f f8e3 413f 34b7 08c0
-0.92266464 -0.34372866 0.021446997 -0.23249537 -0.36432406 -0.30447793 -1.4948556 -0.29284078
2.396656 -3.6141582 -2.0218146 -0.38116622 0.5105637 0.7470078 -0.1470108 -0.5207653
-0.09840336 0.21713577 -0.031092739 -0.13626948 -0.13593587 -0.010808293 0.07048115 -0.19232328
-0.0874214 0.06532681 -0.14646985 0.04753543 0.06029461 -0.24512497 -0.05449628 -0.020924196
0.119496375 -0.25672734 -0.6885357 0.14014529 0.12896106 -0.040507738 0.27670872 -0.33912402
0.07453524 -0.009270353 0.15839528 -0.09194998 -0.24214993 0.043889895 -0.07549114 -0.29037103
-0.15815382 -0.30960253 0.252899 -0.171427 -1.0791466 -1.5796738 0.09829169 -0.29453424
2.3565085 -1.7545866 0.017036516 -3.260961 -1.0167974 -0.023522558 3.6429272 -0.21589006
0.13328919 -0.55278754 0.70570767 -1.9003344 -0.16772367 -0.16192277 -0.19754496 -0.46861413
1.3544108 5.296343 0.8936419 0.5349357 -0.7581427 0.12718584 0.080543876 1.1756932
-0.18493141 0.46317402 -0.36772496 1.0886235 0.24853696 -0.6150344 0.043680586 0.24089853
0.14156072 -9.550593 -0.53828746 -0.3428065 -1.1910771 0.055295 -0.20454352 -0.7319072
-0.27770245 -0.11750072 -4.0162964 0.012322715 0.2582861 -0.07738178 -0.5929613 -0.15738212
-0.5338799 -1.9763247 0.18115638 -0.4857217 -0.05054732 -0.2227338 0.006604595 -0.75370723
-2.994476 0.17341694 -6.1652384 0.31344128 0.23895538 -0.061659224 -4.485062 -0.11114418
0.49387068 -0.0062683597 0.25324523 -1.9902005 0.1694394 1.5551116 3.8130405 1.958613
-1.2249352 -0.333272 -1.5301839 -0.3215666 -0.8603409 -0.01013513 3.702457 -0.1928862
3.4699624 0.112122186 0.9554141 -2.5039794 -0.35586736 -1.3926046 4.4766607 -0.23328994
0.09493385 -0.19499822 -0.043542545 -0.28391862 0.16055371 0.040459614 0.10271895 -0.29961318
-0.0978266 -0.29153478 0.08097495 0.15175603 -0.24067396 0.14880192 -0.0075087333 -0.27376202
-1.1881311 -0.30599782 -1.0938402 -0.14735311 -1.4449747 -0.05426322 2.392518 0.2425083
4.403273 0.5997571 -0.6110883 -1.850315 -0.06190279 -0.43820092 4.2628746 1.2555517
0.3319119 -0.008601522 -0.22912432 -1.288276 0.18267825 -0.3083223 -0.33122388 0.17042573
-0.44028652 4.2311625 0.25958014 0.13875689 0.5428845 0.096980035 -0.30625015 -1.2917541
-0.12472558 0.17042659 -0.0765036 0.46129125 0.1471507 0.06479583 0.18446767 -0.20765269
-0.35314935 -2.8706403 -0.29143697 -0.32571474 0.23903394 -0.027648427 -0.05070458 -2.5056508
-0.28590402 0.1389647 -0.06449924 -0.2749636 0.120510355 -0.060723923 0.07717 -0.21365373
-0.043845374 0.17720507 0.074843414 -0.19543831 -0.094931014 -0.19168638 0.0043466976 0.14035389
-1.2566686 -0.14842731 -3.9171777 -0.4139309 -0.85475874 -0.08753196 0.88542086 -0.14473636
-0.49584758 2.261807 0.79423136 -1.1243875 -0.08492014 -0.18505494 2.2776837 1.6551782
-1.2071842 -0.5233908 -1.7855769 0.14624417 1.0804273 0.023966206 1.2635897 -0.7294586
-0.62867844 -3.187607 0.83564335 0.8669512 -0.3388629 0.65776026 0.7573848 -2.1361818

fc.0.bias f4 [64]
00000000: e58a 39bf ee47 77be 5ab1 6abd 70e2 bebe
00000010: a992 523f 6b97 19bf 7be9 ad3d 520d c4be
00000020: 0f2c 2e3e 4adc 7f3d e1c7 8d3e 177c 95bd
00000030: f50d 35bf 5688 32bc da34 a43e c34c ee3d
00000040: 16a2 acbe cf4f cdbe 6b97 8a3d 4a4a 76be
00000050: 67c8 91be 5019 3cbe fb75 74be 3596 43be
00000060: d969 ac3d b6e7 67bf 02ea e13d e56f 113d
00000070: 24e1 10be e036 09be 7e96 80be 5791 61bf
00000080: 8a8b cabe 87e2 6a3e 0c3e 60bf 537a c83e
00000090: 9dac d1be 4b37 a3bc 17d9 edbe 3354 fc3e
000000a0: ecae b7be 04a7 cc3d 2585 f83e d045 f4be
000000b0: 4617 4dbd f79b a4be 116c c5bc c552 3ebe
000000c0: f4ca 91be a068 d1be 3466 d53e 6751 25be
000000d0: a4d9 2bbf 7aa2 85be 1837 27bf d276 95be
000000e0: 81e7 a5be eade 4b3f 2d49 48bf a00e 3fbd
000000f0: e471 68be d9bc dd3d 981f 45be fa3d c33e
-0.7247756 -0.24148533 -0.057298042 -0.37282133 0.82255036 -0.5999667 0.084917985 -0.38291413
0.17008995 0.062465943 0.27691558 -0.07299059 -0.7072442 -0.010896763 0.32071573 0.11635735
-0.33717412 -0.40099952 0.06767162 -0.24051777 -0.28473207 -0.18369031 -0.23873131 -0.19100268
0.08418626 -0.9058794 0.110309616 0.0355071 -0.14148384 -0.1339984 -0.25114816 -0.88112396
-0.39559585 0.22937976 -0.87594676 0.39155826 -0.40952006 -0.019923827 -0.4645469 0.4928299
-0.35875642 0.09992793 0.4853908 -0.47709513 -0.050071023 -0.32150242 -0.024099382 -0.18586262
-0.28475153 -0.40900135 0.41679537 -0.16144334 -0.6712897 -0.26100522 -0.6531844 -0.29192215
-0.32403186 0.79637015 -0.7823666 -0.046644807 -0.22699696 0.108270355 -0.19250333 0.38133222

fc.2.weight f4 [5, 64]
00000000: e5ce 4540 4e6f eabd ce36 7d3d 391a f4be
00000010: 2df3 14bf a121 90bf 738c e53f ba7d 3ebf
00000020: 1915 dbbf 72e0 c03c 8c3a 1d40 31cf ba3e
00000030: 5452 c13f 007c d6bd 8983 aabd c687 7dbd
00000040: de8d c23e 249d ed3d 7706 fe3e 6cba 2a3d
00000050: d09e 1dbe d85e ab3d aa7e a43d 7150 78bd
00000060: 69c4 9d3d b338 f53f 9257 cb3f f573 8e3f
00000070: 8ca5 e8bd a0f8 70bf 24fc 8a3f 6281 88bf
00000080: 046e 9d3e f791 063f 72a6 61c0 e77f 19c0
00000090: aece b43f b687 e7bd 5087 d5bf 691a 913e
000000a0: c052 293e 5ac0 5b3e afd1 11bf d59e ddbf
000000b0: f090 963f 627f 99be ca77 923d 8e76 67bd
000000c0: e660 2ac0 99c2 3040 b397 503e 8a2d 283f
000000d0: 5104 933f b384 97bf 01e9 1240 004d 1d3e
000000e0: 15cf 373f 8c18 533f a6f3 b93d 4c16 0040
000000f0: 83c5 4c3e 9b08 a5bd fc08 863d e9c7 533c
00000100: e25b df3f 3418 49bd bc40 cc3c 687a 50bf
00000110: 806c d5bf 0025 6bbf f035 09be bfc8 c7be
00000120: 08e5 ecbe 7f20 4dbd 9ec7 8d3f 9f1e 1c3f
00000130: f48b 593f 0262 d3bd 1242 acbf de5f a6be
00000140: 0d6b db3e ee6c 273d 3b5b 293f 0079 c53d
00000150: 55a4 67be 6cff c73c 4edf 19be c7ec 63bd
00000160: c160 b23d 96d1 b13f 9468 ad40 f030 a8bf
00000170: 02a6 ecbd 6b41 253f 3c69 e03e 7a20 75bf
00000180: cd0d 42bd b106 b73e e28c 18c0 4e81 2bc1
00000190: d033 b4bd 3085 12bc 200d 8fbf 570b b73f
000001a0: e41b adbf ac98 a63f 6af1 8fbe 87c8 8fbf
000001b0: c2c4 b440 2589 0f3f aa84 8dbd 146e 23be
000001c0: f143 ce3e c480 0f40 8b99 dc3e b810 ea3e
000001d0: 7a50 ec3e 36ba 1cbe f53f d73f bb8a 0abd
000001e0: 5e1c eebe 6885 9f40 8956 163f fd9b cb3f
000001f0: d931 533c ef2f dbbd 1207 c5bd 8796 2e3f
00000200: ca25 8ebf 80ee af3d 7dd7 de3c 58fc d7bd
00000210: 5a40 fcbf 29d0 09c0 31d2 8bbf 7e00 8dbe
00000220: ac40 97be 1143 82bc 0389 243f e47a 203f
00000230: 3345 0f3f 1c34 fa3b b9bc 5fbf 010a 1bbe
00000240: 3681 2a3f 9213 2e3f 017e 843e c8d2 ef3c
00000250: 1d92 213e f201 c83d b7e6 c63c 1da9 eabc
00000260: fe12 ebbd b771 a13e 8f99 3440 c013 d73f
00000270: d0bd 12bc 3cd4 bbbf cb42 8b3f 1f09 72bf
00000280: 64b9 9c3e 5a0b c13e 5400 debf 7c6a 99c0
00000290: 7ce0 4b3f 1cdc 81bd 32e8 01be b717 e33f
000002a0: cf8a 8bbf 4da1 aa3f b8e6 b8be f28b 6fbe
000002b0: ae10 2340 b589 0e3f 4cee cabd 2480 663d
000002c0: a8b9 edbd 4a2a f13f 1864 4b3f 2ddc 6bbf
000002d0: 4aec f13d 0d6d ec3e 5eaf 2740 d90e 1b3e
000002e0: e9d7 a93f 3fb8 0a40 2b3c 963e 1b51 1d3f
000002f0: dea7 8bbe 3561 29bd dcea e83d de81 f13e
00000300: ec5d 783f e001 8abd 3fb0 483d 94aa cdbe
00000310: 023c 4fbe 8831 78bf de3d 0c40 87b6 3ebf
00000320: c38e cbbe 2cb1 13bd 5c15 553f 7271 903e
00000330: 678b a53f 3c9f 96bd 8eb1 69be 36c9 43bd
00000340: e3ce f53e 389f 8e3e 7da1 e33e 24f3 113d
00000350: cf1d 993d 09f0 993c 61af 9a3d 41f7 a5bd
00000360: 381e 8b3b 858e bc3f d75d 0340 7879 9a3f
00000370: 6abe ad3d 168c 80bf f773 4b3f 40d6 d2bf
00000380: 8a6a 923e c3f9 333f a76a 30c0 204c 7cc0
00000390: b85d 5240 afe0 5c3d ce32 6ebf 26cd 1ebe
000003a0: a59b a73e 74b8 18be d3a5 1cbf 0b84 e8bf
000003b0: 5456 1240 c703 6bbf a03d 8e3d 8679 7f3e
000003c0: eac4 0b3e 4b11 2a40 c1c4 0a3e 7a81 28bf
000003d0: ef8e 213f d0ab 72bf 25bf 3640 ff31 773e
000003e0: e0e0 1f40 5f26 b73f deea 9d3d 54ae 903f
000003f0: 3c7c e83d 4306 0b3e 1071 c43c 81d8 8ebe
3.0907528 -0.11447011 0.061819844 -0.47676256 -0.58183557 -1.1260263 1.7933487 -0.74410594
-1.7115813 0.023544524 2.4566984 0.364862 1.510325 -0.1047287 -0.083258696 -0.06189706
0.3799886 0.11602238 0.49614307 0.041681692 -0.15392613 0.083676994 0.08031972 -0.06062359
0.07703478 1.9157928 1.5886099 1.1129137 -0.113597006 -0.9412937 1.0858197 -1.0664485
0.30747998 0.52566475 -3.525784 -2.3984315 1.4125574 -0.11305182 -1.6681919 0.28340462
0.16535473 0.21460095 -0.56960577 -1.7314097 1.1762981 -0.29979998 0.07151754 -0.056509547
-2.6621642 2.7618773 0.20370369 0.6569449 1.1485692 -1.1837372 2.2954714 0.15361404
0.7180036 0.8245933 0.090796754 2.001361 0.1999722 -0.08058282 0.065446824 0.01292608
1.7449915 -0.049095348 0.024933212 -0.8143678 -1.6673737 -0.9185333 -0.13399482 -0.39020345
-0.46268487 -0.05007982 1.1076543 0.60984224 0.84979177 -0.10321428 -1.3457663 -0.32495016
0.4285511 0.040875368 0.6615483 0.096422195 -0.22621281 0.024413787 -0.1502659 -0.05564573
0.087098606 1.3892086 5.419016 -1.3139935 -0.11555101 0.64552945 0.43830287 -0.9575268
-0.047376443 0.35747293 -2.3835988 -10.719069 -0.08798945 -0.008942887 -1.117588 1.4300336
-1.3524137 1.3015342 -0.28113872 -1.1233071 5.6490183 0.5606864 -0.06910069 -0.1595996
0.4028621 2.2422342 0.43085894 0.4571588 0.4615515 -0.15305409 1.6816393 -0.03382371
-0.46506017 4.985035 0.5872579 1.5906979 0.012890303 -0.10702502 -0.09620489 0.68198436
-1.1105282 0.08590412 0.027202362 -0.105461776 -1.9707139 -2.15333 -1.092352 -0.27539438
-0.29541528 -0.01590112 0.64271563 0.62687516 0.55964965 0.0076356065 -0.8739734 -0.15140535
0.6660341 0.6799861 0.25877383 0.029275313 0.15778394 0.09765996 0.024279935 -0.028645093
-0.11478232 0.3153207 2.8218725 1.6802902 -0.008956388 -1.4674144 1.0879759 -0.9454517
0.30610192 0.37703973 -1.734385 -4.7942486 0.7963941 -0.06340811 -0.12686232 1.7741612
-1.0901736 1.3330475 -0.36113524 -0.23393229 2.547893 0.55678874 -0.09908733 0.05627455
-0.11607677 1.8841031 0.79449606 -0.92132837 0.11812647 0.4617695 2.6200786 0.15142383
1.3269016 2.1674955 0.2934278 0.6145188 -0.2727651 -0.04135247 0.11372921 0.47169393
0.97018313 -0.06738639 0.048996206 -0.40169203 -0.20237735 -0.9695058 2.191276 -0.74497265
-0.39757356 -0.036057636 0.83235717 0.28211552 1.2933167 -0.0735459 -0.22821638 -0.04779931
0.48009405 0.2785585 0.44459143 0.035632268 0.07476389 0.018791215 0.07552982 -0.081038006
0.0042455457 1.4730994 2.0526025 1.2068319 0.08483584 -1.0042751 0.79473823 -1.6471634
0.28596908 0.7030298 -2.7565095 -3.9421463 3.2869701 0.053925212 -0.9304627 -0.15507945
0.32735935 -0.14914113 -0.6119053 -1.8165296 2.286519 -0.9180264 0.06945348 0.24948701
0.13649336 2.6573055 0.13551618 -0.65822566 0.63108724 -0.94793415 2.8554165 0.24140166
2.4981003 1.4308585 0.07710813 1.1303201 0.11351821 0.13576607 0.023979694 -0.27899554

fc.2.bias f4 [5]
00000000: 9a30 1e3f 8066 94be 0a89 b9be 9e7a 343f
00000010: 8b58 2c3f
0.6179291 -0.2898445 -0.36237365 0.704996 0.67322606
