best_nn_model_before_collision.pth (torch, 8423 bytes, 4 tensors)

fc.0.weight f4 [64, 17]
0.02570948 -0.5950794 -2.281588 0.24622133 0.32805142 -0.06691322 0.24607037 -0.38432416
-0.6449606 0.7062816 0.31783196 0.11508612 -0.4158851 -0.14846069 -0.2564274 0.18357275
1.023381 -0.37354332 -0.055096384 -0.6821384 -0.038327985 -0.117994905 0.07794732 0.12664169
0.0011460873 -0.1352412 -0.22015925 -0.1442791 -0.15387736 0.06451184 0.20391788 -0.015294233
0.379212 -0.32732823 -0.5984021 -0.18817346 0.9392767 0.1849175 -0.20466478 0.023054594
-0.43310395 0.23219255 19.903923 -14.654793 -0.37951 -0.22616597 -1.0230901 0.025720993
-0.11201435 0.49798572 -0.34873787 0.89943343 -0.14247534 -1.9032146 -0.5613816 0.34773275
-0.02344271 1.0107839 -0.18313393 -19.8756 -23.379305 0.80510044 0.028180918 0.6731284
-0.021231152 0.06542841 -0.99850196 0.20513412 -0.047165502 -0.34157643 -0.16795102 0.85009503
0.89685524 0.05424387 0.03965336 -0.27456763 11.129817 -5.691566 -0.14377022 -0.33270058
0.660992 0.1277038 -0.015473012 0.22162516 -0.07951266 -0.18722512 -0.36079192 -3.1134284
0.1418134 -0.0071689137 -0.18961106 0.16137537 -0.45202067 -0.40990135 0.5696642 -2.0487504
0.46966618 -0.2683294 -0.16478562 0.12700881 0.8048856 -0.36659756 0.07165455 -0.09838955
-2.694415 -0.06836163 0.032570783 0.08204592 0.03201886 -0.22875561 -0.53328174 0.68402475
-1.8385664 -0.05015565 -0.5292226 0.12282354 0.5505331 0.39123896 -0.22774585 0.765982
0.35728383 -0.73531306 -0.6981559 0.19305365 0.5021583 2.1419878 -0.08730079 -1.1414713
1.0767914 -9.149989 -0.4649558 -0.71513486 -0.35277438 0.16992344 0.1755462 -5.422833
-1.3457282 0.068443805 -2.12193 0.96964616 -0.10390661 1.7947941 -1.980721 -0.23592292
1.0093329 -1.4272166 -3.507145 0.026441542 -1.2072731 0.42556977 0.05309724 0.88343424
-1.2502211 -0.8716002 -0.351288 -3.1008713 -0.2739426 0.07556905 1.5653131 -4.42876
-0.41613293 -0.31834182 0.34762982 -0.51337874 0.05995526 -1.2089462 0.15744606 0.6618058
-1.5709883 0.031849768 -0.19772635 -0.10173583 -3.0527773 0.61424786 0.13072139 0.092723936
0.08821358 -0.4776277 -0.6695512 0.5600855 -3.3207269 0.39807394 -0.46117795 -0.20169869
0.2775725 0.48312816 0.15086652 -0.40548593 0.01649318 -0.28999433 0.07396298 0.5274701
-0.82754594 1.3695754 -0.08280818 3.368124 1.9088655 -1.0196373 -1.8024304 0.18481219
1.3547555 -1.6231158 0.4582693 -1.4036851 0.25157833 0.17385623 0.41909617 1.4248022
-0.3121838 0.5470812 0.033767838 -0.39035678 0.66150224 2.2165756 -7.375504 -7.951709
-0.21281211 1.282649 0.44415393 -0.0492911 -2.2139916 -0.23292156 -0.04105569 -0.092725605
0.09996731 -0.016217163 0.033532318 0.022472255 -0.21763064 0.20072414 -0.07116186 -0.061879613
-0.27200022 -0.028547557 -0.22848621 -0.10720624 0.019582242 0.13966087 -0.26709932 0.15819328
0.754707 -0.76148766 -1.0464354 0.7005195 0.33587104 0.37738568 4.062827 -2.347871
-0.511588 -0.090976305 -0.69111276 -0.13335072 -0.99338996 0.10227824 -1.1555833 -0.42227682
00000000: b09c d23c 2057 18bf 8a05 12c0 7221 7c3e
00000010: 5bf6 a73e cc09 89bd dff9 7b3e 23c6 c4be
00000020: 231c 25bf dfce 343f dfba a23e 46b2 eb3d
00000030: e4ee d4be 1406 18be 744a 83be 7ffa 3b3e
00000040: 26fe 823f 1241 bfbe bfac 61bd 9fa0 2ebf
00000050: cefd 1cbd 50a7 f1bd d8a2 9f3d 5cae 013e
00000060: 4f38 963a ab7c 0abe 6d71 61be e6bd 13be
00000070: 0792 1dbe c91e 843d d9cf 503e aa94 7abc
00000080: 1328 c23e 9197 a7be e130 19bf 8bb0 40be
00000090: 7074 703f 035b 3d3e a593 51be fddc bc3c
000000a0: cdbf ddbe e2c3 6d3e 3c3b 9f41 087a 6ac1
000000b0: 224f c2be 0d98 67be 9ef4 82bf d5b4 d23c
000000c0: c867 e5bd fcf7 fe3e c58d b2be 4541 663f
000000d0: 0ee5 11be 899c f3bf b4b6 0fbf 070a b23e
000000e0: ed0a c0bc 5e61 813f 7687 3bbe 3b01 9fc1
000000f0: d108 bbc1 101b 4e3f abdb e63c 2552 2c3f
00000100: f4ec adbc 55ff 853d d39d 7fbf ae0e 523e
00000110: 9d30 41bd 1be3 aebe 5afb 2bbe d49f 593f
00000120: 4e98 653f d22e 5e3d 906b 223d 2194 8cbe
00000130: bb13 3241 4f21 b6c0 8038 13be bb57 aabe
00000140: c636 293f c9c4 023e 8482 7dbc b5f1 623e
00000150: 89d7 a2bd f1b7 3fbe b8b9 b8be 6942 47c0
00000160: 8837 113e 35e9 eabb 6729 42be 963f 253e
00000170: 416f e7be 97de d1be 83d5 113f ba1e 03c0
00000180: 1678 f03e 7962 89be 90bd 28be 990e 023e
00000190: fc0c 4e3f adb2 bbbe 9fbf 923d 7680 c9bd
000001a0: 4c71 2cc0 2f01 8cbd f168 053d b107 a83d
000001b0: 3526 033d e93e 6abe 2785 08bf 3f1c 2f3f
000001c0: 2556 ebbf 0370 4dbd 227b 07bf e88a fb3d
000001d0: bdef 0c3f 7950 c83e 3536 69be 6517 443f
000001e0: e8ed b63e 7a3d 3cbf 58ba 32bf dbaf 453e
000001f0: 728d 003f 5416 0940 c2ca b2bd bb1b 92bf
00000200: 4dd4 893f 5b66 12c1 b00e eebe 1413 37bf
00000210: d89e b4be 6900 2e3e 62c2 333e d987 adc0
00000220: d240 acbf 442c 8c3d b3cd 07c0 bb3a 783f
00000230: fdcc d4bd d0bb e53f 4488 fdbf c795 71be
00000240: d231 813f 09af b6bf 1075 60c0 ef9b d83c
00000250: ed87 9abf 48e4 d93e 7e7c 593d bf28 623f
00000260: 3f07 a0bf 3121 5fbf 05dc b3be ad74 46c0
00000270: 3442 8cbe f2c3 9a3d 2e5c c83f 67b8 8dc0
00000280: 600f d5be b3fd a2be 89fc b13e ca6c 03bf
00000290: a693 753d c0be 9abf 8a39 213e 1b6c 293f
000002a0: 2516 c9bf e774 023d c778 4abe e05a d0bd
000002b0: b460 43c0 593f 1d3f d4db 053e 0ce6 bd3d
000002c0: 52a9 b43d 9e8b f4be b567 2bbf c361 0f3f
000002d0: ca86 54c0 59d0 cb3e 841f ecbe 1a8a 4ebe
000002e0: fc1d 8e3e 935c f73e c17c 1a3e da9b cfbe
000002f0: b51c 873c 237a 94be e779 973d 4808 073f
00000300: 0dda 53bf 3f4e af3f 5697 a9bd 588f 5740
00000310: b455 f43f 7a83 82bf 0ab6 e6bf 683f 3d3e
00000320: a168 ad3f 42c2 cfbf 46a2 ea3e f4ab b3bf
00000330: e0ce 803e 5e07 323e c693 d63e eb5f b63f
00000340: 8ed6 9fbe 830d 0c3f 2550 0a3d d8dc c7be
00000350: 3658 293f 60dc 0d40 2104 ecc0 6674 fec0
00000360: 6beb 59be d82d a43f 2568 e33e 77e5 49bd
00000370: 0ab2 0dc0 fd82 6ebe 032a 28bd ece6 bdbd
00000380: a9bb cc3d dbd9 84bc 2f59 093d bc17 b83c
00000390: 91da 5ebe a18a 4d3e 4fbd 91bd 7a75 7dbd
000003a0: 9d43 8bbe 91dc e9bc 4af8 69be f28e dbbd
000003b0: f06a a03c 4203 0f3e 3ec1 88be 6bfd 213e
000003c0: 7a34 413f dbf0 42bf 98f1 85bf 3f55 333f
000003d0: 4af7 ab3e b238 c13e ae02 8240 8543 16c0
000003e0: 6ef7 02bf c951 babd c4ec 30bf 178d 08be
000003f0: ce4e 7ebf 4177 d13d 27ea 93bf ab34 d8be

fc.0.bias f4 [64]
-0.28288433 -0.19670138 0.34021547 -0.1565573 -0.06963939 -0.27631453 -0.122687854 -0.22428702
-0.40376595 -0.026954792 -0.4864786 -0.39422747 -0.47388092 0.04671288 0.08125022 -0.6990154
-0.32794893 -0.29266834 0.22733347 0.031488433 -0.09768531 -0.5952592 -0.53010654 0.40296146
0.40065634 -0.62464476 -0.30675605 -0.31427202 -0.65287757 -0.21819775 -0.24275027 -0.109164566
0.03451109 -0.15327303 -0.778064 -0.20182875 -0.1646761 -0.75928915 -0.1861944 -0.2556339
0.45700076 -0.271328 -0.30641717 -0.35979417 -0.96869415 0.02983011 -0.479899 -0.25120318
-0.12476652 0.010135067 -0.54882365 0.0026289404 -0.3325386 -0.24110372 0.010827118 -0.24598904
-0.73327553 -0.42954713 -0.3709729 -0.949068 0.6821863 -0.17320032 0.36732724 -0.07285026
00000000: 37d6 90be 166c 49be b930 ae3e 8f50 20be
00000010: 199f 8ebd 1979 8dbe c543 fbbd 7fab 65be
00000020: 69ba cebe 4cd0 dcbc b913 f9be 2fd8 c9be
00000030: 85a0 f2be 0156 3f3d 8466 a63d acf2 32bf
00000040: ece8 a7be a0d8 95be 1bca 683e 04fa 003d
00000050: 3c0f c8bd e862 18bf 10b5 07bf f750 ce3e
00000060: d422 cd3e b8e8 1fbf 210f 9dbe 43e8 a0be
00000070: fc22 27bf 3b6f 5fbe 8793 78be ac91 dfbd
00000080: 805b 0d3d 9bf3 1cbe 342f 47bf 32ac 4ebe
00000090: daa0 28be c660 42bf bfa9 3ebe 72e2 82be
000000a0: 01fc e93e 81eb 8abe b6e2 9cbe f136 b8be
000000b0: 57fc 77bf 465e f43c 52b5 f5be b49d 80be
000000c0: 9785 ffbd 8d0d 263c b57f 0cbf 4d4a 2c3b
000000d0: 8042 aabe e5e3 76be 3964 313c 8de4 7bbe
000000e0: f2b7 3bbf 9aed dbbe 29f0 bdbe 1ff6 72bf
000000f0: c3a3 2e3f 6d5b 31be 5112 bc3e 8432 95bd

fc.2.weight f4 [5, 64]
1.3167266 -0.004179964 -1.1086829 -0.3631639 -0.46999905 2.623836 1.2043318 -0.86694133
-1.3292608 1.265471 1.9417636 -1.2330548 -1.6424229 -0.09199857 0.30385143 -3.0194163
0.26875594 0.53431594 -0.49541545 -0.32229692 -0.049395293 -3.431393 -2.4338102 -0.1607205
-4.599884 -4.10957 -0.6633608 -3.1118257 -8.864091 -0.7505197 3.2359917 0.35043788
-0.12411535 1.3327903 0.44225833 -0.2071452 0.1174324 -7.6973715 1.6762841 0.47004917
0.3582653 -0.070039734 0.3039153 1.1303898 -14.729848 -0.21305354 3.8803706 -0.15128098
2.0657053 0.2675517 0.77534807 0.88998204 0.25359124 0.16588522 -0.1498356 1.512219
5.675719 -1.125439 -0.03667232 0.7251334 1.5801963 -0.09310259 -0.25878805 -0.04315692
-0.3683337 0.22993575 0.04112817 -1.6275582 -0.05054706 1.7755754 -0.5612102 -1.8624614
-1.425123 1.217452 0.24161786 -0.3297325 -3.073069 0.094972566 0.036642663 -1.6524975
0.15955622 1.7869654 -0.76864356 -0.094667576 0.10729815 -2.0396762 -0.5941848 -0.3304251
-4.4427905 0.1389074 -2.1879706 -6.538752 -4.8476005 -2.330159 3.2283056 0.13795117
-0.12411685 2.2584934 0.436496 0.19317812 -0.009580568 -3.5748453 -6.30673 0.5470612
0.49348086 -0.023737654 0.67200714 1.6030103 -8.507317 -0.13710366 2.9939928 0.39467466
2.3626773 1.2899519 0.7709549 0.7282128 0.20403038 -0.025176352 1.1198276 1.3776643
2.5042312 -0.3273492 -1.9321474 1.7907465 1.1188656 0.07257892 -0.29970947 0.015564328
1.0021532 -0.03101924 -0.11691486 -0.7751955 -1.0634985 1.7754536 1.0908716 -1.0680472
-1.3090721 1.3596249 1.7826645 -0.06918159 -1.1904906 0.0037769657 0.22303005 -0.123457775
0.9614253 0.84660333 -0.3359401 -0.6412821 -0.009202565 -2.0019908 -2.2109466 -0.34033906
-6.5985765 -1.7088041 -1.9600074 -0.5891463 -3.3159401 -3.752976 4.525371 0.39908448
-0.01918158 0.62954277 -0.872311 0.0630024 0.10328224 -3.867277 0.7605514 1.1207963
0.7829035 -0.010071591 -0.80164814 1.1825411 -11.211701 -0.6677832 3.9964697 -0.9056218
3.366794 0.2644534 1.0850232 1.08761 0.8475453 0.66658515 1.234719 0.9852538
2.8776178 -1.921504 1.1432333 2.765487 2.476533 -0.03438942 -0.75777197 0.0592338
-1.1015614 0.06082129 -0.23423444 -0.18538123 -0.48783782 1.0439996 -1.7528267 -0.7737862
-1.0592828 0.85507655 0.5631388 -0.20061074 -1.6099442 -0.031568646 0.21356133 -2.740729
0.29104257 1.8104116 -0.51588196 -0.36610436 -0.034617692 -3.4217956 -0.48952228 0.38535056
-5.1435905 -0.037051044 -2.6543384 -0.70753294 0.14297384 -0.6440575 3.4707856 0.330671
-0.0026563257 0.60631007 0.4882397 -0.19335586 0.09693667 0.43630308 0.047806177 0.10787035
0.35486352 0.04243771 0.48690665 0.19123328 -4.65218 -0.15612969 3.711317 0.36379752
2.2394547 0.804141 0.69368756 1.6014374 1.0044098 0.15136054 -0.41080073 0.8836062
0.30413276 -1.4036655 -2.0143585 -0.009142199 1.1542534 -0.08936201 -0.31767878 -0.058205254
00000000: 7f8a a83f 14f8 88bb 52e9 8dbf 9ef0 b9be
00000010: b7a3 f0be eeec 2740 8b27 9a3f deef 5dbf
00000020: 3825 aabf f4fa a13f b68b f83f bdd4 9dbf
00000030: ea3a d2bf bf69 bcbd 6a92 9b3e 1e3e 41c0
00000040: 619a 893e eec8 083f 18a7 fdbe 1a04 a5be
00000050: b852 4abd f19b 5bc0 8cc3 1bc0 ea93 24be
00000060: 4032 93c0 9981 83c0 03d2 29bf 2728 47c0
00000070: 51d3 0dc1 0f22 40bf 7d1a 4f40 986c b33e
00000080: 3030 febd df98 aa3f af6f e23e df1d 54be
00000090: 6680 f03d de50 f6c0 7a90 d63f 49aa f03e
000000a0: 8d6e b73e fe70 8fbd c99a 9b3e 9db0 903f
000000b0: 75ad 6bc1 b52a 5abe fe57 7840 67e9 1abe
000000c0: 8434 0440 89fc 883e 367d 463f ddd5 633f
000000d0: b6d6 813e d1dd 293e 816e 19be 6490 c13f
000000e0: 7d9f b540 630e 90bf b735 16bd 58a2 393f
000000f0: df43 ca3f 92ac bebd de7f 84be 4fc5 30bd
00000100: 3c96 bcbe 4774 6b3e 0376 283d d453 d0bf
00000110: 6f0a 4fbd 0e46 e33f 79ab 0fbf 2365 eebf
00000120: 6e6a b6bf 78d5 9b3f ac6a 773e b3d2 a8be
00000130: 2aad 44c0 fa80 c23d 9e16 163d 0a85 d3bf
00000140: b562 233e 48bb e43f d3c5 44bf 13e1 c1bd
00000150: 22bf db3d 0e8a 02c0 7f1c 18bf 7b2d a9be
00000160: 572b 8ec0 be3d 0e3e b607 0cc0 753d d1c0
00000170: 8b1f 9bc0 5321 15c0 8f9c 4e40 1243 0d3e
00000180: fa30 febd 288b 1040 677c df3e 7cd0 453e
00000190: d1f7 1cbc 44ca 64c0 bbd0 c9c0 340c 0c3f
000001a0: 86a9 fc3e 7875 c2bc a908 2c3f 712f cd3f
000001b0: f81d 08c1 e764 0cbe 949d 3f40 cc12 ca3e
000001c0: 1b36 1740 251d a53f 4d5d 453f 276c 3a3f
000001d0: 57ed 503e a33e cebc 8356 8f3f 4e57 b03f
000001e0: 5345 2040 509a a7be 9b50 f7bf 2e37 e53f
000001f0: fd36 8f3f 42a4 943d 8573 99be 8601 7f3c
00000200: 8e46 803f 101c febc 0f71 efbd 3673 46bf
00000210: b820 88bf 1042 e33f aea1 8b3f c5b5 88bf
00000220: ad8f a7bf 3008 ae3f 5a2e e43f 14af 8dbd
00000230: ff61 98bf f886 773b fd61 643e 6ed7 fcbd
00000240: f81f 763f ffba 583f 5700 acbe 102b 24bf
00000250: 5bc6 16bc 9e20 00c0 2680 0dc0 ec40 aebe
00000260: 8a27 d3c0 18ba dabf 86e1 fabf 4bd2 16bf
00000270: 5d38 54c0 c230 70c0 d7cf 9040 cd54 cc3e
00000280: b022 9dbc b729 213f c64f 5fbf 6707 813d
00000290: a485 d33d 7781 77c0 7fb3 423f 4176 8f3f
000002a0: 5d6c 483f 5003 25bc d038 4dbf 825d 973f
000002b0: 2163 33c1 d7f3 2abf 29c6 7f40 d5d6 67bf
000002c0: 8e79 5740 7066 873e 0ae2 8a3f ce36 8b3f
000002d0: bbf8 583f 53a5 2a3f 460b 9e3f 9839 7c3f
000002e0: e42a 3840 d8f3 f5bf 7855 923f bdfd 3040
000002f0: 847f 1e40 ecdb 0cbd 58fd 41bf 249f 723d
00000300: f7ff 8cbf bf1f 793d 27db 6fbe 94d4 3dbe
00000310: e1c5 f9be c7a1 853f a05c e0bf da16 46bf
00000320: 9496 87bf 4ce6 5a3f dd29 103f e76c 4dbe
00000330: a712 cebf 204e 01bd d2af 5a3e 1b68 2fc0
00000340: 8803 953e 91bb e73f d710 04bf 0872 bbbe
00000350: 48cb 0dbd b3fe 5ac0 aaa2 fabe ab4c c53e
00000360: 4b98 a4c0 d6c2 17bd aee0 29c0 e120 35bf
00000370: bc67 123e f4e0 24bf 5a21 5e40 b64d a93e
00000380: c015 2ebb 2337 1b3f 8efa f93e 14ff 45be
00000390: bc86 c63d 1e63 df3e 69d0 433d 21eb dc3d
000003a0: acb0 b53e 2ad3 2d3d d44b f93e a8d2 433e
000003b0: a9de 94c0 76e0 1fbe 3886 6d40 ab43 ba3e
000003c0: 3a53 0f40 2fdc 4d3f 8295 313f e7fb cc3f
000003d0: 8090 803f 42fe 1a3e 7954 d2be 0434 623f
000003e0: 4ab7 9b3e 50ab b3bf 40eb 00c0 29c9 15bc
000003f0: 93be 933f 6e03 b7bd cba6 a2be a268 6ebd

fc.2.bias f4 [5]
0.7338103 0.4757911 0.7142925 0.65576756 0.59386224
00000000: feda 3b3f e49a f33e e0db 363f 62e0 273f
00000010: 5b07 183f
