nn_model.pth (torch, 8167 bytes, 4 tensors)

fc.0.weight f4 [64, 16]
00000000: db3c fa3e c305 a0be bc79 c13d 025f 8abf
00000010: a347 92be 1b59 523d 5366 34bf 8345 ffbd
00000020: 076c 59bf a51e 8d40 d849 a53e 33a9 0abc
00000030: c996 95be a1f1 2ebe 20db 0cbf 80a9 e1be
00000040: c52b e03d 32f9 0abe 5891 c03d b54d c73e
00000050: 7cce b9be be83 353f 205b ddbe 1ad7 b0be
00000060: b463 963e 9f42 c4c0 1c09 bbbd b39e cfbe
00000070: 1405 333f bb85 ab3f 7a4c ef3e 7a9b 873e
00000080: 4da1 60be afb9 fb3e 72e3 6c3f 8d07 363f
00000090: f775 12bf dc7c 323e b646 b1be ba27 7f3e
000000a0: eb12 0841 77d5 d3bf 3c30 3dbf 6ac7 4bbe
000000b0: cf87 a1bf 1ae1 bbbd 8bb5 933b f24c e9bf
000000c0: acce 24bf bcbe e33e 7bd9 69bd 4856 b53f
000000d0: d726 78bf 0058 65be 50b6 34be 27f1 ec3e
000000e0: 6147 1b40 9bdc 14c1 04db 50bf 9a7c d2bf
000000f0: 05a2 503f 7b30 e3bd a7cb a73e a8ad b9bd
00000100: 67fb ab3e ce71 4e3e 8850 f03e 9082 a2bd
00000110: ef39 c23e 0ed6 0e3e 91a4 0bbf 625c b5be
00000120: c468 f2bf 387a 673f 09cc 293e de7b 333e
00000130: 9a85 8dbe 77db fc3e 50e9 84bf c892 b4c0
00000140: 457f ec3e 8cdf c8be cd71 c03e 3f39 86bf
00000150: 371f b13e aa22 6ebe add2 3f3f 6623 1fbc
00000160: e070 c73f eef3 7440 7f46 273e c8ec 153f
00000170: 9628 d0be 08e6 33be f9e3 a83d 0b9b 7540
00000180: ab0a 20bf f99c e4bc a032 3bc1 aefa 22bf
00000190: d5c2 2fbf 7cf2 a9bd c78c 23bf 8357 88be
000001a0: 01fe e6bf a36e c13f 3e44 963f 8a13 06c0
000001b0: 9592 923e 04f0 41bd 9552 453f 9cb0 883f
000001c0: 0080 5abe 0608 30be f65c 25be a0d6 5fbe
000001d0: 50d6 91bc c0c8 34bd deb4 7ebe 78b3 a83d
000001e0: 8efc 3d3e fe5b 063e 7446 2bbe c61a 583e
000001f0: 40d6 1ebd 70b2 4fbd 0087 8c3b e4b9 003e
00000200: 83b6 8dbc 40c3 00be 7e40 ebbe 81d4 05bc
00000210: 638f 8a3e 9f3c 04be 6de1 50be 7a1f 153e
00000220: e491 25b9 446b 49bf d5ea 023e 07ae 3dbe
00000230: 437d fb3d 7703 36be 8ebf ab3e 7623 0dbe
00000240: de1f be3c 8f5f 4ebe b0e7 a7bf 13cf b6bc
00000250: f3d1 37bb 543e 423d eb39 a1c0 c00a 92be
00000260: 1926 c4be 0520 e23c f083 463e 951a 1bbf
00000270: 6aaf 1b3e 9d16 10be 4c47 adbe 6f48 433f
00000280: 9a35 f4bf c51c ef3c dc86 2cc1 3d20 3a3a
00000290: 1914 03bf 3886 503d af29 b3bf 990c ea3c
000002a0: 17db d1bf 18f4 e93e f258 ab3f 16e5 e2bf
000002b0: f376 cbbe bc5e 1abe e01b 613f ce62 cfbe
000002c0: c79f 43bd f7c1 adbe 5116 a4bd 6488 edbe
000002d0: 5a3e 88ba 0a56 edbe 343a 10c0 8fa6 54be
000002e0: 2b47 803f dc04 2e3f 3ffa 00c0 dbc0 953d
000002f0: 1b64 47bd 284a bdbe 41e6 823e cb14 a2be
00000300: 8efa 673f 368c e8be b8d2 3c3f 08ee 9fbe
00000310: deaf 9bbf 0e19 d43b 4a06 f8bf 9173 843e
00000320: 27e1 c1bf 5c00 543d aeba cfbe 0c77 dfbf
00000330: 3ddb 753f 59cd b33c dc84 15c0 37fd 1e40
00000340: 2454 95bf 08e5 243e 0cf3 8abf e2a4 1d3f
00000350: 343b b23f a603 7cbf 1561 2a3f 919c 5ebe
00000360: 3a0c 00c0 10dc c3c0 607f f8be 06b8 a63e
00000370: 86cf 9e3f 0ba7 f9be 015f 943f 10f9 26c0
00000380: 1b2a 98be 86c9 5fbe 165b 543e f6db e53d
00000390: 0ad9 07bd 45af 593d 012f 273c c974 88bd
000003a0: 06fb 7b3e c568 b2be 0449 a53d c75b a93c
000003b0: 934e c2bd 1b20 eabd 1916 3bbe de7a 4bbe
000003c0: 3f56 a63f 7d24 91be 1a79 15c0 fd22 d2bd
000003d0: fcb1 bf3f ff16 90bc a010 6a3f dbbb 1dbd
000003e0: da0b b4c0 43ea 883e 1546 a6bd 64e3 123f
000003f0: 1c61 06bd 42a6 673d 3e74 74bf e51f 1d3e
0.48874554 -0.31254396 0.09447047 -1.0810244 -0.2857028 0.05135451 -0.70468634 -0.1246443
-0.8493046 4.409991 0.322829 -0.008463192 -0.29216602 -0.17084362 -0.5502186 -0.4407463
0.109458484 -0.13571623 0.09402722 0.38926473 -0.36290348 0.7090415 -0.43233585 -0.3453911
0.29372942 -6.1331325 -0.09132597 -0.40550765 0.69929624 1.3400186 0.46738034 0.26485807
-0.21936531 0.49165103 0.92534554 0.7110527 -0.5721125 0.17430443 -0.3462426 0.24917498
8.504619 -1.6549519 -0.73901725 -0.19900289 -1.261957 -0.09173794 0.0045077256 -1.8226607
-0.64377856 0.44481456 -0.05709217 1.4166956 -0.96934265 -0.2239685 -0.17647672 0.46277735
2.4262316 -9.303859 -0.8158419 -1.6444275 0.8149722 -0.11093231 0.32772562 -0.090663254
0.33590242 0.201606 0.4693644 -0.07935059 0.37934825 0.13948843 -0.54547983 -0.35422045
-1.8938222 0.90420866 0.1658174 0.1752772 -0.27640992 0.49386188 -1.0383701 -5.6429176
0.4619085 -0.39233053 0.37586823 -1.048622 0.34594128 -0.23255411 0.7493084 -0.0097130295
1.5581322 3.8273883 0.16335486 0.58564425 -0.40655965 -0.17568219 0.08246607 3.837588
-0.6251628 -0.027906882 -11.69986 -0.63663757 -0.68656665 -0.08298203 -0.63886684 -0.26629266
-1.8046266 1.5111889 1.1739576 -2.0949426 0.28627458 -0.047348037 0.77079135 1.0678897
-0.2133789 -0.1719056 -0.16148743 -0.21859217 -0.017802387 -0.044136763 -0.24873683 0.08237356
0.18553373 0.1312103 -0.16726094 0.21103963 -0.038778543 -0.05070728 0.004288554 0.12570912
-0.017298942 -0.12574482 -0.4594764 -0.008168341 0.2706252 -0.1291375 -0.20398493 0.14562789
-0.00015789975 -0.786793 0.12784894 -0.18523417 0.12279751 -0.17774759 0.33544582 -0.13783059
0.023208555 -0.2015364 -1.311758 -0.022315538 -0.0028048723 0.047422722 -5.03832 -0.28523827
-0.38310316 0.027603159 0.19386268 -0.60587436 0.15203634 -0.14071126 -0.33843458 0.762824
-1.9078858 0.029188523 -10.782925 0.0007100141 -0.5120254 0.05090925 -1.3997096 0.02857046
-1.6394986 0.4569404 1.3386519 -1.7726161 -0.3973919 -0.15075201 0.8793316 -0.4050507
-0.047759797 -0.33937046 -0.08012069 -0.4639312 -0.0010394559 -0.46354705 -2.2535524 -0.20766662
1.0021719 0.67976165 -2.0152738 0.07312175 -0.048679452 -0.3697064 0.25566295 -0.3165649
0.9061669 -0.45419472 0.7375903 -0.3123629 -1.2163045 0.0064727133 -1.9376919 0.2586942
-1.5146836 0.051758155 -0.40572113 -1.7458205 0.96037656 0.021948503 -2.336234 2.484205
-1.1666303 0.16102993 -1.0855422 0.61579716 1.3924317 -0.9844307 0.66554385 -0.21739413
-2.0007463 -6.120613 -0.4853468 0.32562274 1.2407081 -0.48760256 1.1591493 -2.6089516
-0.29719624 -0.21854219 0.20737872 0.11223595 -0.03316597 0.053145666 0.010204078 -0.066629
0.24607477 -0.34845558 0.08070567 0.020673646 -0.09487643 -0.11431905 -0.18270148 -0.19871089
1.299507 -0.2834815 -2.3355165 -0.1026058 1.4976192 -0.01758909 0.9143162 -0.03850923
-5.6264467 0.26741228 -0.08118836 0.5737822 -0.032807454 0.05655504 -0.9548987 0.15344198

fc.0.bias f4 [64]
00000000: dad9 e03e beef 0e3e e173 6cbe 1dcc 3cbf
00000010: a30c 973d 0ed3 cd3e 29f1 e13e ba09 27be
00000020: 7e4f 8dbe 5c5f 77be e9e3 7c3d f219 37be
00000030: 921e c6bd 5e50 8abf 90eb 80be 2193 6abf
00000040: 485d 31bf 6083 0fbe 3fb5 14bf 7456 9c3d
00000050: 065c 04bf 728a c8be a842 813e 21e0 afbd
00000060: 1f01 03be c9ce 0abe c873 f1be 10c8 5cbf
00000070: 2340 91be 6a58 bdbe 61ce 923e ec6f a1bf
00000080: d2a4 17bf aba3 9ebe e100 083e d614 23be
00000090: fcf6 b73d f35e ffbe 6dbb 05be 7e03 19bf
000000a0: 041d 8a3c 1028 71bf 8b81 84be 96ed 183d
000000b0: 09fc bcbd 346a a5be beed 353f 3611 f9bd
000000c0: d614 1ebe 8144 40bd 9cdc 34bd f308 71be
000000d0: ba36 9bbe 5201 113e e091 cdbe d8c9 3fbe
000000e0: 073e 22be 1e4f ac3d fd50 fa3b c56d 2dbe
000000f0: a6db d03d c0e1 44be 1831 e03d 3ded bdbe
0.43916208 0.13958642 -0.2309108 -0.7374895 0.07375457 0.40200084 0.44129303 -0.16312304
-0.2759971 -0.2415747 0.06174079 -0.17880991 -0.096737996 -1.0805776 -0.2517972 -0.9163075
-0.6928296 -0.1401496 -0.5808906 0.07633677 -0.51702917 -0.39168125 0.25246167 -0.08587671
-0.12793396 -0.13555445 -0.47158647 -0.8624277 -0.28369245 -0.36981517 0.2867308 -1.2612281
-0.5923587 -0.30984244 0.13281585 -0.15925917 0.089826554 -0.49877128 -0.13059779 -0.59770954
0.016859539 -0.94201756 -0.25880083 0.037335955 -0.092277594 -0.3230759 0.7106589 -0.12161486
-0.15437636 -0.04694033 -0.044155702 -0.2353857 -0.3031519 0.1416066 -0.40150356 -0.18729341
-0.15843974 0.08413528 0.007639049 -0.16936405 0.101981446 -0.19226742 0.10946864 -0.3709506

fc.2.weight f4 [5, 64]
00000000: 8b16 19bf faf4 28bf bee0 603f 1178 33c0
00000010: 2791 ed3e ba65 f23e 900f e2c0 9885 d8bc
00000020: 1ec6 6abd b651 07bf e74d 98c0 495f 403e
00000030: 9104 0c3f a412 a03e 8617 2c3d 79b9 56bf
00000040: 50b2 003e a7d8 32bf 76eb 39c0 0040 693b
00000050: f7f0 1d3e d7c4 0abf 79ad 76c0 f67e dd3d
00000060: ec61 0fbf 75e4 1bbd 7923 6d40 eb7b 163f
00000070: d087 0cbf 3bed 943f 1d95 92be 62ac 98be
00000080: 0ef2 223e 54f7 7e40 5bdc 8b3e d0c0 16bd
00000090: 2856 903c bb27 373f c4e7 88bd 3d6d 7d3e
000000a0: 0198 bbbf ffc2 e43e a5ba 9bbd 9967 8abf
000000b0: 8288 c5bc 90d5 893f be76 5140 6642 1041
000000c0: ab9d a83f 26c3 ba3e c6cc f83e 22ff 08bc
000000d0: 8b7c 97bf 6081 b4bc a0cb d13e fc4e 96bd
000000e0: 3e0c ef3f 40eb a93e 4a88 a040 30d9 ea3e
000000f0: 2845 fb3d a8f8 183d f429 e03d 8873 093f
00000100: 495f fbbe c546 d2be 95d5 3d3f 16ea 54c0
00000110: 2ee0 fc3e 20f7 303f bdb9 00c1 2ec4 c03d
00000120: 3f9c eb3d 273e 14bf 760f 03c0 41dc 1d3d
00000130: 96af 6a3e 7b2f ee3f b024 b93d 517c 9940
00000140: 4a47 433f 9215 b4be 279d 3dc0 2071 173c
00000150: e46f d03e 2f52 4bbe 929c 01bf 4058 773b
00000160: b775 ddbe 0976 b2bd bee1 8940 2f8f ab3e
00000170: 4da0 07bd 545b 1a40 3f50 86bf d9ed f7be
00000180: 6697 c63d 4e0f 8540 273d b0be 8084 93bc
00000190: 6cd7 b6bd f4fe 4e3f b20b cf3d d9ce 0c3e
000001a0: 6078 00c0 a52e 86c0 6d79 5abd 9c9f 04bf
000001b0: 5d36 ac3c 1b90 f93e 23bb 4d40 c18c f440
000001c0: f65f b53f fca2 eebe a538 003f 76a5 30bd
000001d0: 177f 7bbf 2cd5 92bd 6aab 273e 8ce2 6a3d
000001e0: 56c3 9f3f 04b7 603e 7f05 983e 1a1b d2bd
000001f0: 2cad b13d 40cf 59bb c6b7 cfbd 226a 143f
00000200: 068f fdbe c184 a0be 550b 1d3f e550 1cc0
00000210: 1899 a13e 4a91 b13e 236e c3c0 e67f c0bd
00000220: eb5a ebbc c1e3 a1be 89f0 09c0 6ba0 873e
00000230: ee0d 993e a4bc 503f 882c 4fbd 688d 1dc0
00000240: 1d5a 453d 1f04 003e e922 2ac0 b8f1 26bd
00000250: 8072 e03c a927 5cbe d7a3 0bbf 90b0 97bc
00000260: 7d7b 86be ad4a 97bd 17fc 5240 be48 113f
00000270: c015 bdbe ac25 2c40 b32a d3be 9d1e 47bf
00000280: 23ba fdbd 7302 6b40 038b 203e 5e3f 853d
00000290: 8e7c af3d db15 1e3f 5955 81bd faf4 e83d
000002a0: 0f9e b5bf 8ae8 0740 423b ebbc e533 40bf
000002b0: 718d a0bd 853b 903e e86f 1b40 2be2 c640
000002c0: 8879 e63f b335 86bf 1bda a53e 0ab1 2dbc
000002d0: d5f7 c23d 6024 bb3b b068 763e ea9c d5bd
000002e0: d55a ef3f 6ad1 353e 32c9 aa3e 97b4 043e
000002f0: aca3 283b 9088 37bd 504a 8c3c b0fc ef3e
00000300: c888 04bf a482 00bf 5838 063f 904d 44c0
00000310: dd8a aa3e ad91 b93e 1675 dec0 2ecd 943d
00000320: b3c8 1cbd 764d f2be a679 26c0 18ca 18bf
00000330: ab6a 973e b76f 333f 9243 a93c bd2d 19c0
00000340: 3614 103d c80a 8abf a0fc 2ac0 7cdb 70bd
00000350: 46e7 623d 4a14 84be e81c 13bf 3a31 97bd
00000360: e63d 92be 58f2 b33c a9ab 7940 d859 063f
00000370: 1098 dabe 7049 3340 cf9d bfbe 4b29 d6be
00000380: dbbe a6be 487f 6b40 092b 243e fc22 b2bd
00000390: 2099 0bbc 6764 563f ba0e ae3d 35cb 693e
000003a0: 5bc2 a7bf e43e 0340 bfa8 d13c 936d 23bf
000003b0: 8744 a83c e00a b93e 416a 3640 402a e540
000003c0: 373d 3640 dcef 61bf b167 173f 0705 b33d
000003d0: 18a9 a0bf 50a5 a6bd d6f3 6b3d 80c3 f8bb
000003e0: 65a9 ee3f d971 2e3e 4b9a aa3e b326 123e
000003f0: 0281 5a3a 668e e9bd 8067 753d cd40 0c3f
-0.5980002 -0.65998805 0.8784293 -2.8042033 0.46399805 0.47343236 -7.0643997 -0.02643089
-0.057317846 -0.52859056 -4.7595096 0.18786348 0.5469447 0.31264222 0.04201462 -0.8387676
0.12568021 -0.69861835 -2.9049964 0.0035591125 0.15423952 -0.54206604 -3.854338 0.108152315
-0.5600879 -0.03805967 3.70529 0.58782834 -0.54894733 1.1634897 -0.2862939 -0.29819018
0.15912649 3.9838457 0.27316555 -0.036804974 0.017619208 0.71545 -0.06684831 0.24748702
-1.4655763 0.4468002 -0.07603959 -1.0812865 -0.024112944 1.0768299 3.2728724 9.016211
1.3173116 0.3647701 0.4859373 -0.00836161 -1.1834882 -0.022034347 0.40975666 -0.07339284
1.8675611 0.33187294 5.016637 0.45868826 0.1226905 0.037346512 0.10945502 0.5369191
-0.49096134 -0.41069618 0.74154025 -3.3267875 0.49389786 0.6912708 -8.045346 0.09412418
0.11504411 -0.57907337 -2.0478187 0.03854013 0.22918543 1.860824 0.09040201 4.7964253
0.76280653 -0.35172707 -2.9627168 0.00924328 0.40710366 -0.1985557 -0.5062953 0.003774181
-0.43253872 -0.0871392 4.3088064 0.33507678 -0.03311186 2.4118242 -1.0493239 -0.4842365
0.09696846 4.1581182 -0.34421656 -0.018007517 -0.08927807 0.8085778 0.101096526 0.13750781
-2.007347 -4.193194 -0.053338457 -0.51806045 0.021022016 0.48742756 3.214547 7.642182
1.416991 -0.46608722 0.5008643 -0.043126546 -0.982408 -0.071695656 0.16373983 0.05734496
1.2481487 0.21944815 0.29691693 -0.102590755 0.08675608 -0.0033235103 -0.10142474 0.57974446
-0.4952318 -0.31351283 0.61345416 -2.4424374 0.31562114 0.3468116 -6.1071944 -0.09399395
-0.028729877 -0.31619075 -2.155306 0.26489577 0.2989344 0.8153784 -0.050579578 -2.4617558
0.04818164 0.12501572 -2.6583807 -0.040757865 0.027398348 -0.21499504 -0.54546875 -0.018516809
-0.2626609 -0.0738729 3.2966363 0.5675162 -0.36930656 2.6897993 -0.41243514 -0.7778109
-0.123890184 3.6720245 0.15678029 0.06506227 0.08568679 0.617521 -0.06315107 0.113748506
-1.4188861 2.123568 -0.02871478 -0.75079185 -0.07839478 0.2817041 2.4287052 6.2151084
1.8005838 -1.0485138 0.32392964 -0.010601291 0.095199265 0.0057111233 0.24063373 -0.104303196
1.8699595 0.17755666 0.33356625 0.12959515 0.0025732322 -0.04480797 0.017125279 0.46872473
-0.5177121 -0.5019934 0.52429724 -3.067234 0.3330907 0.36243954 -6.9517927 0.072656974
-0.03827734 -0.47324723 -2.6011748 -0.5968337 0.2957357 0.7009234 0.020662103 -2.3934166
0.035175525 -1.078454 -2.671669 -0.058803067 0.05539634 -0.2579673 -0.5746598 -0.07382436
-0.2856285 0.021966144 3.9011023 0.5248084 -0.4269414 2.8013573 -0.37425086 -0.4182838
-0.32567486 3.6796436 0.16032042 -0.08698079 -0.008520395 0.8374695 0.084989026 0.22831424
-1.3106188 2.0507135 0.02559316 -0.6383907 0.020540489 0.3614111 2.8502352 7.1614075
2.8474863 -0.8825662 0.59142596 0.08741193 -1.2551603 -0.081369996 0.057605587 -0.007591665
1.8645445 0.17035617 0.3332084 0.14272575 0.00083352637 -0.114041135 0.05991316 0.5478638

fc.2.bias f4 [5]
00000000: 5df8 cbbd 3f00 6e3d 1f54 6dbd 3c69 02bd
00000010: 9f54 34bd
-0.09959481 0.058105703 -0.057941552 -0.03183864 -0.044026013
